MachineLearningPredictionModels_PTHFiles/qmof_cost_model_best.pth.tar (torch, 673606 bytes, 58 tensors)

embedding.weight f4 [64, 92]
0	0xbc6dad10	-0.014506593
1	0x3b99342e	0.0046754098
2	0xbd45414b	-0.04815797
3	0xbd5b1edc	-0.053496227
4	0xbd5beeb2	-0.053694434
5	0x3d092928	0.033486515
6	0xbd7bf001	-0.061508182
7	0x3d06db11	0.03292376
8	0xbb895022	-0.004190461
9	0xbdc30a27	-0.09523421
10	0x3dd166ad	0.10224662
11	0x3d09653d	0.033543814
12	0xbd03d038	-0.032180995
13	0xbd5fc28a	-0.054628886
14	0x3ce6c27f	0.028168915
15	0xbd9023cf	-0.0703808
16	0x3da99e7e	0.08282183
17	0xbdc1e807	-0.09468084
18	0xbdb1e105	-0.08685497
19	0xbd69eb45	-0.057109136
20	0xbd3df674	-0.046377614
21	0xbc9e27e6	-0.019306134
22	0xbd6d56d1	-0.057944123
23	0x3d7cd5e5	0.061727423
24	0xbb609009	-0.003426554
25	0xbdb47aee	-0.088125095
26	0xbcf47314	-0.02984003
27	0xbd5a1eb2	-0.05325193
28	0x3d4382de	0.047732227
29	0x3cd3fd8d	0.025877738
30	0xbc70cec5	-0.014697735
31	0xbd986232	-0.07440604
32	0x3d537025	0.05162062
33	0x3d93b809	0.07212836
34	0x3da275f1	0.07932652
35	0x3dcdd654	0.100506455
36	0x3c5d481c	0.013505962
37	0x3db6e685	0.08930687
38	0x3d1aa49e	0.037754647
39	0xbd01cbf9	-0.031688664
40	0x3db40dfd	0.087917306
41	0xbd1447d9	-0.03620133
42	0xbd0d483d	-0.03449272
43	0xbd0521ce	-0.03250294
44	0x3d6a031e	0.05713188
45	0x3a8ed75d	0.0010897923
46	0x3cdb33cd	0.026758099
47	0xbd18ff17	-0.037352648
48	0xbdb50098	-0.08838004
49	0x3d55c83c	0.05219291
50	0x3c8eeb20	0.0174461
51	0xbdc07125	-0.093965806
52	0xbcaa7d63	-0.020811742
53	0x3dc13de1	0.094356306
54	0x3d77f503	0.060536396
55	0x3c6a04bf	0.014283358
56	0x3da18998	0.07887572
57	0xbcd752ac	-0.026284538
58	0x3d986bbc	0.07442424
59	0xbd56dbd3	-0.052455734
60	0x3d9673e5	0.07346324
61	0x3db3cce2	0.08779313
62	0x3da86ac9	0.08223493
63	0x3ba175ba	0.004927364
64	0x3d759564	0.059956923
65	0xbdc699e3	-0.0969732
66	0x3d307d76	0.0430884
67	0x3d8991d5	0.067172684
68	0xbd8711de	-0.06595205
69	0x3d43537e	0.047687046
70	0x3b2d4d8c	0.0026443927
71	0xbd9e3f34	-0.07726899
72	0x3dc07d3b	0.09398886
73	0xbd38543b	-0.045002203
74	0x3dbc7dea	0.09203704
75	0xbcd6b4b1	-0.026209207
76	0xbda2cb80	-0.07948971
77	0x3d2dad8c	0.042401835
78	0xbd6b8035	-0.057495315
79	0x3ced7099	0.028984355
80	0xbdd00bbd	-0.10158489
81	0xbd317708	-0.043326408
82	0x3b75e028	0.003751764
83	0xbd332810	-0.04373938
84	0x3d920bf4	0.07131186
85	0xbd186b5b	-0.037211757
86	0x3ce30a82	0.027714971
87	0xbd36359b	-0.044484716
88	0x3d0548f5	0.03254028
89	0x3c3dbd12	0.011580722
90	0x3b01449b	0.001972473
91	0x3c982c75	0.018575886
92	0x3da921cf	0.082584016
93	0x3d915888	0.07096964
94	0xbd53cdfb	-0.05171011
95	0xbda1d663	-0.07902219
96	0xbc83957d	-0.016062493
97	0xbbf04c33	-0.0073333024
98	0xbd8707da	-0.065932944
99	0x3da2cec0	0.07949591
100	0x3db4ac15	0.088218845
101	0x3daa6451	0.08319915
102	0xbdc3f4d2	-0.0956818
103	0x3d889b75	0.06670276
104	0x3c7f225c	0.015572157
105	0x3daa0215	0.08301178
106	0x3db74cdb	0.08950206
107	0xbd9ad138	-0.075594366
108	0x3d7162c6	0.05893209
109	0x3dcca0cb	0.09991606
110	0xbd8abd00	-0.0677433
111	0xbd4466b1	-0.047949497
112	0x3d725804	0.05916597
113	0xbce54ee2	-0.027991716
114	0x3db522b2	0.08844508
115	0xbd8f8b7c	-0.070090264
116	0x3d8fcfed	0.070220806
117	0x3d55491f	0.052071687
118	0xba865f87	-0.0010251858
119	0xbd3b2ae7	-0.04569521
120	0x3d991a81	0.07475758
121	0xbd01ec43	-0.031719457
122	0xbdc3d41b	-0.0956194
123	0xbd8fb87b	-0.07017609
124	0x3ab57d85	0.0013846612
125	0x3a05afbf	0.00050997356
126	0x3d45b7ea	0.048271097
127	0xbc8e9581	-0.017405273
128	0xbd02fc1d	-0.031978715
129	0x3c48e80a	0.012262354
130	0x3cdafac7	0.026730908
131	0xbd527f7a	-0.051391102
132	0x3db06dd7	0.086147
133	0x3dbcc7df	0.0921781
134	0x3dc65b51	0.09685386
135	0x3b92e458	0.004482787
136	0xbd1eb739	-0.038748953
137	0x3be2c296	0.006920169
138	0x3caacaaf	0.0208486
139	0x3d6831b1	0.056688014
140	0x3db302e6	0.08740787
141	0x3cac5e46	0.021041047
142	0xbdc5c9b4	-0.096576124
143	0x3dc0c47b	0.09412476
144	0x3d5ed7f7	0.05440518
145	0x3d42d9e6	0.047571085
146	0xbd88a27a	-0.06671615
147	0xbd141304	-0.036150947
148	0xbd62a7ec	-0.055335924
149	0x3dc3401d	0.09533713
150	0xbd4c6c5e	-0.049908035
151	0x3d8a1875	0.06742946
152	0xbdb97edf	-0.09057402
153	0xbdbece76	-0.09316723
154	0x3dbcd205	0.092197455
155	0x3d9f40f1	0.077760585
156	0x3bf4deeb	0.007472863
157	0xbd545422	-0.051838048
158	0x3dd1ad53	0.10238137
159	0xbd51e0a3	-0.05123962
160	0x3d45a7ca	0.04825572
161	0xbcaa3174	-0.020775534
162	0xbc9deefe	-0.019279
163	0xbd4b2b93	-0.049602102
164	0x3da2172b	0.07914575
165	0xbd9daf58	-0.0769946
166	0xbad85594	-0.0016504996
167	0x399eead4	0.0003031107
168	0x3dc5a8af	0.096513145
169	0xbd1912d2	-0.037371464
170	0xbda4ed15	-0.08053032
171	0x3d740703	0.059577
172	0x3cd54f72	0.026038859
173	0x3a253936	0.00063027756
174	0xbd099105	-0.033585567
175	0xbdb6bfac	-0.08923277
176	0xbdc51bef	-0.096244685
177	0xbd7a7551	-0.061147038
178	0xbd51fd12	-0.051266737
179	0xbd1ae1e9	-0.0378131
180	0x3c383244	0.011242453
181	0xbd30bbbb	-0.043147784
182	0xbbc221d5	-0.0059244432
183	0x3d0eab3a	0.034831263
184	0x3dadeb76	0.08492176
185	0xbd3f0363	-0.04663409
186	0x3cf7d74f	0.030254034
187	0xbda8b678	-0.08237928
188	0xbc12df9a	-0.008964444
189	0xbda468fd	-0.080278374
190	0x3dbb1445	0.091347255
191	0xbb65e53e	-0.0035079266
192	0xbd56d1d9	-0.05244622
193	0x3d212a95	0.03934725
194	0xbd25abcd	-0.040447045
195	0x3cb3b3b7	0.02193628
196	0xbce0877e	-0.027408358
197	0xbd45517d	-0.048173416
198	0xbd794038	-0.06085226
199	0xbb9dbf23	-0.004814045
200	0xbd492306	-0.049105667
201	0x3d406d22	0.046979077
202	0xbc9ce538	-0.019152269
203	0xbc8fdc19	-0.017561005
204	0xbd86e1c8	-0.06586033
205	0xbca672b0	-0.02031836
206	0x3db41329	0.08792717
207	0x3d983b4a	0.074331835
208	0x3d767d27	0.06017795
209	0x3d8c2281	0.068425186
210	0x3d3ab525	0.04558291
211	0xbd030ebb	-0.03199647
212	0xbd778318	-0.060427755
213	0x3d93085b	0.07179328
214	0x3dc40b31	0.09572447
215	0xbd51cc72	-0.051220365
216	0x3a43e868	0.0007473291
217	0x3daaedd6	0.08346145
218	0x3b9a127b	0.00470191
219	0x3ced7d30	0.028990358
220	0x3d83082c	0.06398043
221	0xbd434aa1	-0.047678594
222	0x3d40a5ce	0.047033124
223	0x3d0ed9b5	0.03487559
224	0xbcaf4305	-0.021394262
225	0xba937582	-0.001125023
226	0xbbe3cfa9	-0.0069522453
227	0x3dc9532a	0.098303154
228	0xbdb1a585	-0.086741485
229	0xbc925ffc	-0.017868035
230	0xbd8932ae	-0.066991195
231	0x3db8e4d4	0.090280205
232	0xbd52d0d6	-0.051468693
233	0x3d83daf2	0.06438245
234	0xbc18e6b1	-0.009332345
235	0xbd8757bb	-0.0660853
236	0x3c8cc66b	0.017184457
237	0x3d276bd1	0.040874306
238	0x3b036304	0.0020048032
239	0x3ca05b76	0.019574862
240	0xbd602d97	-0.054730978
241	0xbc5a060b	-0.013307105
242	0xbd2680f3	-0.04065032
243	0x3dcc9df1	0.099910624
244	0x3da862c3	0.08221962
245	0xbcb8e28c	-0.022568963
246	0x3db7f04c	0.0898138
247	0x3c12321a	0.008923078
248	0x3d0a97ec	0.03383629
249	0x3cace7e8	0.021106675
250	0xbbe858a0	-0.007090643
251	0x3c3ecf28	0.01164607
252	0x3d10c912	0.035348006
253	0xbdb6272e	-0.08894192
254	0xbd82e44f	-0.06391203
255	0xbd953ae4	-0.07286623

embedding.bias f4 [64]
0	0xbd6db740	-0.05803609
1	0xbc547d1b	-0.012969281
2	0x3c58aa74	0.013224233
3	0xbcfbd487	-0.03074099
4	0xbdcdac71	-0.10042656
5	0x3d90df4c	0.070738405
6	0x39a7ccde	0.0003200536
7	0x3d596a90	0.05308014
8	0xbb42d306	-0.002972783
9	0xbd1876db	-0.037222724
10	0xbd09eabf	-0.033671137
11	0x3dcb92f8	0.099401414
12	0x3db5e50d	0.088815786
13	0xbd2beab4	-0.041971877
14	0x3d4ce85b	0.05002628
15	0xbdcb9592	-0.09940638
16	0xbd7d8e26	-0.06190314
17	0x3c984a07	0.018589986
18	0x3b180476	0.0023196018
19	0x3d721c5e	0.059109084
20	0xbca81f48	-0.020522729
21	0xbdb59e75	-0.08868114
22	0xbd24156e	-0.0400595
23	0x3c282169	0.010261872
24	0x3d8b25ce	0.0679432
25	0x3b83a45c	0.004017396
26	0x3dc26c2f	0.09493291
27	0x3d4f1a82	0.05056239
28	0x3d89a231	0.06720389
29	0xbd42dd22	-0.04757417
30	0xbd99ca4f	-0.075092904
31	0x3d2b44a9	0.041813526
32	0x3d078fd9	0.03309617
33	0x3d74cf3d	0.05976795
34	0xba55cbee	-0.0008155693
35	0xbda870e3	-0.082246564
36	0xbce76290	-0.02824524
37	0x3d906728	0.070509255
38	0x3d4a13b4	0.049335197
39	0xbd389718	-0.04506597
40	0xbbfa8972	-0.0076457793
41	0xbc909793	-0.017650401
42	0xbd1f9442	-0.03895975
43	0x3d1821e7	0.037141707
44	0x3d7cd833	0.06172962
45	0xbc654465	-0.013993357
46	0x3d8a9583	0.06766798
47	0x3dbd2179	0.092349
48	0xbbfa4a84	-0.0076382775
49	0xbdc8b76c	-0.0980061
50	0xbd9eac14	-0.07747665
51	0xbd483563	-0.04887904
52	0xbdac93f5	-0.08426658
53	0xbbc0d6d0	-0.0058849826
54	0xbdc54828	-0.09632903
55	0xbb8e3d27	-0.004340786
56	0xbda0fb4b	-0.0786043
57	0x3da6eb55	0.08150355
58	0x3b275968	0.0025535468
59	0xbd843348	-0.064550936
60	0x3c1c15cb	0.00952668
61	0x3db30c64	0.08742598
62	0xbdb942ca	-0.09045942
63	0xbcaf4ecc	-0.021399878

convs.0.fc_full.weight f4 [128, 169]
0	0x3d8bac21	0.0681994
1	0x3d4d8277	0.05017325
2	0xbb5d9800	-0.0033812523
3	0xbb548dcd	-0.0032433153
4	0x3d93121e	0.0718119
5	0x3d0f212c	0.034943745
6	0x3d16dcf0	0.036831796
7	0x3d8ce03b	0.06878706
8	0xbd164088	-0.036682636
9	0xbb7f0c15	-0.0038917114
10	0x3c26a1a5	0.010170375
11	0xbca21cfa	-0.019789208
12	0xbbaf01d9	-0.0053407964
13	0x3d1abf6c	0.03778021
14	0x3a99a100	0.0011720955
15	0xba9b7010	-0.0011858959
16	0xbd3da38d	-0.046298552
17	0x3c851404	0.016244896
18	0xbcf675db	-0.030085495
19	0xbd66f4fa	-0.05638597
20	0xbc38bf91	-0.011276142
21	0x3d10be85	0.035337944
22	0x3d13b2e2	0.036059268
23	0xbd84fef3	-0.0649394
24	0x3d2d6b7b	0.04233883
25	0xbd7f200b	-0.062286418
26	0xbc48e9c0	-0.012262762
27	0xbd83668e	-0.06416045
28	0xbb9c5a58	-0.004771512
29	0x3d93bc76	0.072136804
30	0xbca6c3b1	-0.020356985
31	0xbd882a65	-0.06648711
32	0x3d47e671	0.04880375
33	0xbd31a120	-0.04336655
34	0x3c1bac29	0.009501495
35	0x3c2be981	0.010492683
36	0xbd172df0	-0.036909044
37	0x3c43aa9f	0.011942535
38	0xbaaf998a	-0.0013397199
39	0x3bdbf743	0.0067128255
40	0x3d3f8ec4	0.04676701
41	0xbcca2563	-0.02467603
42	0x3d314e10	0.043287337
43	0xbccb0a2b	-0.024785122
44	0x3d9348f9	0.07191653
45	0x3d8eafd5	0.06967131
46	0x3bc5ad3e	0.006032615
47	0x3d8ba2dd	0.06818173
48	0xbd82fb51	-0.06395591
49	0x3d98892c	0.074480385
50	0x3d72feaa	0.059324898
51	0x3bca913e	0.006181865
52	0xbd26a063	-0.0406803
53	0xbc1fe36a	-0.00975881
54	0xbd82837e	-0.063727364
55	0xbd77a46b	-0.060459536
56	0xbc7d9ae6	-0.015478825
57	0xbcc4d972	-0.024029467
58	0x3cdad73e	0.026713964
59	0xbc48b312	-0.012249725
60	0x3d9ec176	0.077517435
61	0xbc97cd99	-0.018530654
62	0xbc8c1640	-0.017100453
63	0x3c08668e	0.008325232
64	0x3d39dd0e	0.04537683
65	0x3d7c8c1a	0.06165705
66	0x3d671305	0.056414623
67	0xbc92ae70	-0.017905444
68	0x3c81c0b2	0.015838955
69	0xbcc926eb	-0.02455469
70	0xbd1ae7d8	-0.03781876
71	0x3cbdcbdc	0.023168497
72	0x3d1c52bf	0.03816485
73	0xbc8a2b5b	-0.016866377
74	0x3d788683	0.060675155
75	0x3cdd0143	0.02697814
76	0xbcd95803	-0.026531225
77	0xbd073f37	-0.03301927
78	0xbb943a15	-0.0045235255
79	0xbc16bdec	-0.009200554
80	0xbd37864c	-0.04480581
81	0xbbebd5a2	-0.007197098
82	0xba7cfd87	-0.00096508156
83	0x3c835a66	0.016034316
84	0x3d920bd3	0.071311615
85	0xbd840ff3	-0.064483546
86	0x3c914bdd	0.01773637
87	0xbd98e9eb	-0.07466491
88	0xbd7c2d6e	-0.061566763
89	0x3d9f602c	0.07782015
90	0x3c2fa34d	0.010720086
91	0xbbee4668	-0.0072715767
92	0xbbdfa3f5	-0.006824965
93	0x3b9d27f6	0.0047960235
94	0xbd85d155	-0.065340675
95	0x3d30acbb	0.04313348
96	0xbcaf633c	-0.021409623
97	0xbca9b3e2	-0.020715658
98	0x3d82a38b	0.063788496
99	0x3cd86c39	0.026418792
100	0xbcd2385a	-0.025661636
101	0x3d81fe84	0.06347373
102	0xbc8aed1c	-0.016958766
103	0xbd822a5b	-0.06355735
104	0xbd0beb05	-0.03415968
105	0x3bbbcf13	0.0057314723
106	0xbc8c122c	-0.017098509
107	0x3d54c3ba	0.051944472
108	0xba0bce60	-0.00053331815
109	0x3c608a09	0.013704785
110	0xbba87633	-0.0051410436
111	0x3d113c70	0.03545803
112	0x3bd86022	0.006603257
113	0x3c51f7cd	0.012815428
114	0x39cf8210	0.0003957902
115	0xbd9e35ad	-0.077250816
116	0x3cb41a3f	0.021985171
117	0xbd667812	-0.05626685
118	0xbd7233ce	-0.059131436
119	0x3cb5ce3c	0.022193067
120	0xbd994d21	-0.07485414
121	0xbca8aac1	-0.020589234
122	0xbd64514e	-0.0557416
123	0xbd25813c	-0.04040645
124	0x3c266438	0.01015573
125	0xbd5fd4d9	-0.054646347
126	0xbd90e1a6	-0.07074289
127	0xbcae1812	-0.021251712
128	0xbcb43a94	-0.022000588
129	0xbcb7ec5a	-0.022451568
130	0xbd9892da	-0.07449885
131	0xb876b8bd	-5.882302e-05
132	0x3d82cb7c	0.06386468
133	0x3d6eddab	0.058316868
134	0xbd583536	-0.05278512
135	0xbd46d659	-0.04854426
136	0x3d3db5e7	0.046316054
137	0xbd279295	-0.040911276
138	0x3d0a31e1	0.033738974
139	0x3d0418ca	0.032250203
140	0xbc4e5c96	-0.012595316
141	0x3d218a33	0.039438438
142	0x3d2a9a2f	0.041650947
143	0x3cab1fd5	0.020889202
144	0xbb249a70	-0.0025116466
145	0x3d7c4a8d	0.061594535
146	0xbbd06e6f	-0.006360821
147	0x3ccffdc3	0.025389558
148	0xbc173b7e	-0.009230493
149	0x3ba9cbaf	0.0051817517
150	0xbd61796f	-0.05504745
151	0x3c9e4576	0.01932023
152	0xbd324d07	-0.04353049
153	0x3d6cb0dc	0.057785854
154	0xbd418b03	-0.047251713
155	0xbd61cda3	-0.05512775
156	0xbce7cdec	-0.028296433
157	0xbce514b6	-0.027963977
158	0x3d38f734	0.045157626
159	0x3c5bdca8	0.013419308
160	0x3ca87670	0.020564288
161	0xbd21400a	-0.039367713
162	0xbd2957a5	-0.04134335
163	0x3d8015c5	0.06254152
164	0xba136580	-0.00056227297
165	0x3ca020a4	0.019546814
166	0xbd8fcfe4	-0.07022074
167	0xbc9fcd36	-0.019507032
168	0x3d742f86	0.059615634
169	0xbd226446	-0.03964641
170	0x3cc342e3	0.023835605
171	0xbd484a33	-0.048898887
172	0x3d919998	0.07109374
173	0xbd55152b	-0.05202214
174	0x3ce8e242	0.0284282
175	0xbd902763	-0.070387624
176	0xbc82494a	-0.015904088
177	0xbd956588	-0.07294756
178	0x3cde0358	0.027101204
179	0xbd8edb8f	-0.06975471
180	0x3d7d461c	0.06183444
181	0x3d5b7133	0.053574752
182	0x3d8c44e6	0.06849079
183	0xbd912f0f	-0.07089054
184	0xbc478e5c	-0.012179937
185	0x3cd746d9	0.0262789
186	0x3d91cd4c	0.071192354
187	0x3d8c7a34	0.06859246
188	0xbc8a2c55	-0.016866842
189	0x3b93dd92	0.004512497
190	0x3c91ba2c	0.017788969
191	0xbcdfe8bb	-0.027332654
192	0x3d377e2e	0.04479807
193	0xbd1185db	-0.035528045
194	0xbc6d7627	-0.014493502
195	0x3c911758	0.017711326
196	0xbb8f1120	-0.004366055
197	0x3d5975e5	0.05309095
198	0x3d55c7c9	0.052192483
199	0x3d5fd33c	0.05464481
200	0x3d14ae63	0.03629912
201	0xbd9d8f3f	-0.07693338
202	0xbc613900	-0.0137465
203	0x3d2e9fa9	0.042632733
204	0xbbbc78e0	-0.005751714
205	0xbd94ecc3	-0.07271721
206	0xbd6ab76f	-0.057303842
207	0x3cd6ca33	0.026219463
208	0x3ce1f73f	0.027583716
209	0x3b046663	0.0020202629
210	0x3d632af6	0.055460893
211	0x3d9e01c5	0.07715181
212	0x3d31ecd3	0.043438744
213	0x3d808375	0.062750734
214	0xbc875165	-0.016518304
215	0xbd9adad7	-0.07561272
216	0x3bf9ccf4	0.0076233093
217	0x3d39318a	0.04521326
218	0x3bbe0896	0.0057993634
219	0xbd6bd8bb	-0.057579737
220	0xbc8eb446	-0.017419945
221	0xbcf89a70	-0.030347079
222	0xbc8828ff	-0.016621111
223	0x3d736b92	0.05942876
224	0xbd71d71c	-0.059043035
225	0x3d420cf3	0.04737563
226	0x3d76fb83	0.060298454
227	0xbccbbf64	-0.024871536
228	0x3d24de74	0.04025121
229	0x3c123728	0.008924283
230	0xbd3a5dc7	-0.04549959
231	0x3d78ece5	0.060772795
232	0xbd2d883d	-0.042366255
233	0xbd48239a	-0.048862077
234	0xbc95598b	-0.018231174
235	0x3cdce8ca	0.026966471
236	0xbc812c8c	-0.015768312
237	0x3d420933	0.047372054
238	0x3d5dabe7	0.054119017
239	0x3d8737ac	0.066024154
240	0x3d173160	0.036912322
241	0xbd6b96f0	-0.057516992
242	0x3d5ca8e7	0.053872015
243	0x3d9d7f07	0.07690244
244	0xbd4e328b	-0.05034117
245	0xbd56fb06	-0.05248549
246	0xbc548425	-0.012970959
247	0x3c1264a8	0.008935131
248	0x3d39d356	0.04536756
249	0xbd865ad4	-0.06560293
250	0x3d976554	0.07392374
251	0x3d904318	0.07044047
252	0xbd843649	-0.064556666
253	0x3d37384d	0.044731427
254	0x3c029e35	0.00797229
255	0xbd655547	-0.05598953

convs.0.fc_full.bias f4 [128]
0	0x3d55d8ae	0.052208595
1	0xbc2223f0	-0.0098962635
2	0xbd8f7d61	-0.07006336
3	0xbd078a64	-0.033090964
4	0xbbcc5f85	-0.0062369728
5	0x3cea29bf	0.02858436
6	0x3d8c29eb	0.06843933
7	0xbd485def	-0.048917707
8	0x3c33fba1	0.010985286
9	0xbd080cd5	-0.033215363
10	0xbd2a2e26	-0.041547917
11	0xbd923c20	-0.07140374
12	0x3cfe2ee3	0.031028217
13	0xbd8fe576	-0.07026188
14	0x3d565de6	0.052335642
15	0x3bfd8984	0.0077373404
16	0x3d03d4a8	0.032185227
17	0xbd94c289	-0.07263667
18	0xbc1c7f12	-0.00955178
19	0xbc731f69	-0.014839032
20	0xbd70d9c3	-0.058801424
21	0x3ce76b1e	0.02824932
22	0xbc5180c6	-0.01278705
23	0x3c9acb17	0.018895669
24	0x3d7d037f	0.061770912
25	0x3d0aeee0	0.033919215
26	0xbd91d95d	-0.07121537
27	0x3b401423	0.0029308877
28	0x3d349fe8	0.04409781
29	0xbd023354	-0.03178723
30	0x3d8ffde7	0.0703085
31	0x3cf5e61e	0.030016955
32	0x3d975aa6	0.07390337
33	0x3c891ee6	0.016738366
34	0x3c922cd6	0.017843645
35	0x3b4a7ce3	0.0030897192
36	0xbd18cdd7	-0.03730568
37	0x3d450576	0.04810091
38	0x3d044aac	0.032297775
39	0x3d919f22	0.0711043
40	0xbd530e51	-0.051527325
41	0x3c98760c	0.018610977
42	0xbb928c77	-0.004472311
43	0xbd8efae2	-0.06981446
44	0xbc06eac3	-0.0082346825
45	0xbd4d6842	-0.050148256
46	0x3c65698c	0.014002215
47	0xbd0f04a1	-0.034916524
48	0x3c886479	0.016649472
49	0x3cc0ed81	0.02355075
50	0xbd5c6de3	-0.053815734
51	0xbd7e1115	-0.06202801
52	0xbd4f076f	-0.0505442
53	0xbc5a938c	-0.013340842
54	0x3c0292c2	0.00796956
55	0xbc4b3dea	-0.012404898
56	0xbd6c2269	-0.057650004
57	0x3ce73b95	0.028226653
58	0x3d58511c	0.052811727
59	0xbcff0c61	-0.031133832
60	0xbd21ade5	-0.03947248
61	0xbcc0fb9a	-0.023557473
62	0x3c91f2fb	0.017816057
63	0x3a91d0f6	0.0011124897
64	0x3d4828b1	0.04886693
65	0x3d0178b4	0.031609252
66	0xbd0fb23a	-0.03508208
67	0x3c6474a8	0.013943829
68	0x3d87b2a2	0.066258684
69	0xbd63e9b5	-0.055642802
70	0x3ce77fbe	0.028259154
71	0xbd9bc6b3	-0.07606258
72	0x3c288a21	0.010286839
73	0xbd8c4c88	-0.06850535
74	0xbbd1baa4	-0.006400423
75	0x3d675c1b	0.056484323
76	0xbd0b2b3c	-0.03397678
77	0xbd824300	-0.063604355
78	0x3d1b428b	0.037905257
79	0x3d8e04fd	0.06934545
80	0xbd3894be	-0.045063727
81	0x3d7cf90f	0.06176096
82	0xbd7a777c	-0.061149105
83	0xbd7225d1	-0.059118096
84	0x3d90fc05	0.07079319
85	0x3c8a9228	0.016915396
86	0x3cae75d0	0.021296412
87	0xbcde7538	-0.027155504
88	0xbcaa904a	-0.020820756
89	0xbd3ce75c	-0.04611908
90	0x3c4dd491	0.012562887
91	0xbd80779f	-0.06272816
92	0x3cfbe8a1	0.030750575
93	0x3cffc00d	0.031219507
94	0x3d9cfb39	0.076651044
95	0xbd750565	-0.059819598
96	0xbd0d5579	-0.03450534
97	0x3d3cb2ce	0.04606896
98	0xbd6828e6	-0.05667963
99	0xbd60cb75	-0.05488153
100	0xbd1a9ef3	-0.037749242
101	0x3d9bf55c	0.07615158
102	0xbccd9f47	-0.025100363
103	0x3d3081da	0.043092586
104	0xbccb3b35	-0.024808506
105	0x3d23f2b2	0.040026374
106	0x3d2fa555	0.042882282
107	0xbd5b1794	-0.053489283
108	0xbd3b0106	-0.045655273
109	0x3cc72b5b	0.024312666
110	0x3bb0c3a8	0.005394418
111	0xbd1f018d	-0.03881984
112	0xbb0c3f25	-0.0021399942
113	0x3d0bcd0f	0.034131106
114	0x3d5b2b2c	0.05350797
115	0xbd0437f2	-0.032279916
116	0x3cfb1305	0.030648718
117	0xbd74681b	-0.059669595
118	0xbbf5c9a3	-0.0075008436
119	0x3d995ece	0.07488786
120	0x3d2a931b	0.041644197
121	0xbd3774a5	-0.044788975
122	0xbd22e9b3	-0.039773654
123	0xbd886c98	-0.066613376
124	0x3d99a6ad	0.07502494
125	0xbc4576c4	-0.012052242
126	0xbd0acb9e	-0.03388559
127	0x3b31fdf2	0.002715942

convs.0.bn1.weight f4 [128]
0	0x3f7fee5a	0.9997307
1	0x3f7fc505	0.9991
2	0x3f7ffc95	0.99994785
3	0x3f7fefef	0.99975485
4	0x3f802811	1.0012227
5	0x3f7fe104	0.9995272
6	0x3f7ffdcd	0.99996644
7	0x3f7fda9b	0.9994294
8	0x3f8007e0	1.0002403
9	0x3f7fe9e8	0.9996629
10	0x3f7fcbcf	0.9992036
11	0x3f800026	1.0000045
12	0x3f7ff3d7	0.99981445
13	0x3f7fe29c	0.99955153
14	0x3f7ff9db	0.99990624
15	0x3f800750	1.0002232
16	0x3f80039f	1.0001105
17	0x3f800510	1.0001545
18	0x3f7ff378	0.9998088
19	0x3f7ff9fe	0.9999083
20	0x3f800061	1.0000116
21	0x3f8006fb	1.000213
22	0x3f7ffde6	0.99996793
23	0x3f7fd667	0.99936527
24	0x3f7fed77	0.9997172
25	0x3f7ff339	0.99980503
26	0x3f803aa0	1.0017891
27	0x3f800315	1.000094
28	0x3f7ff7bd	0.99987394
29	0x3f8011a2	1.0005381
30	0x3f802830	1.0012264
31	0x3f80049c	1.0001407
32	0x3f801a0f	1.0007952
33	0x3f7ff767	0.9998688
34	0x3f805dae	1.0028589
35	0x3f7ff5aa	0.9998423
36	0x3f7fcb20	0.9991932
37	0x3f801086	1.0005043
38	0x3f7ffeb7	0.9999804
39	0x3f7ffc70	0.99994564
40	0x3f7ff1b0	0.9997816
41	0x3f7ff04f	0.99976057
42	0x3f7febb7	0.9996905
43	0x3f800aff	1.0003356
44	0x3f800631	1.000189
45	0x3f800ba2	1.000355
46	0x3f803328	1.0015612
47	0x3f7fe7e7	0.9996323
48	0x3f7fe94c	0.9996536
49	0x3f7fd4c3	0.99934024
50	0x3f7ff802	0.99987805
51	0x3f800b2e	1.0003412
52	0x3f7fd1cb	0.99929494
53	0x3f7ff81a	0.9998795
54	0x3f803fcb	1.0019468
55	0x3f7fdfa9	0.99950653
56	0x3f7ffb08	0.9999242
57	0x3f7ff45e	0.9998225
58	0x3f7ff28b	0.99979466
59	0x3f7fb85e	0.99890697
60	0x3f800440	1.0001297
61	0x3f800ced	1.0003945
62	0x3f800069	1.0000125
63	0x3f7ff845	0.99988204
64	0x3f800309	1.0000926
65	0x3f8013c3	1.0006031
66	0x3f7ff7c3	0.9998743
67	0x3f800a5d	1.0003163
68	0x3f7fd8f8	0.99940443
69	0x3f8015f7	1.0006703
70	0x3f7ffd12	0.9999553
71	0x3f800782	1.0002291
72	0x3f7ff074	0.9997628
73	0x3f800bb8	1.0003576
74	0x3f8010c8	1.0005121
75	0x3f7fff80	0.9999924
76	0x3f7fe8d0	0.9996462
77	0x3f801186	1.0005348
78	0x3f7fff9e	0.99999416
79	0x3f80000a	1.0000012
80	0x3f7ff8a3	0.99988765
81	0x3f7ffe91	0.9999781
82	0x3f801b98	1.0008421
83	0x3f7ff6cd	0.99985963
84	0x3f8002e7	1.0000886
85	0x3f7fdc81	0.9994584
86	0x3f7ff694	0.99985623
87	0x3f802eab	1.0014242
88	0x3f80064c	1.0001922
89	0x3f800504	1.0001531
90	0x3f7f6ff5	0.9978021
91	0x3f7ffdf2	0.99996865
92	0x3f8002ed	1.0000893
93	0x3f7ff997	0.9999022
94	0x3f7f9c7c	0.9984815
95	0x3f800dc0	1.0004196
96	0x3f7fc688	0.9991231
97	0x3f7ffe84	0.99997735
98	0x3f7f901d	0.99829274
99	0x3f80014c	1.0000396
100	0x3f800c39	1.000373
101	0x3f8015a6	1.0006607
102	0x3f7fff8c	0.9999931
103	0x3f8002e6	1.0000885
104	0x3f800460	1.0001335
105	0x3f80103c	1.0004954
106	0x3f800edb	1.0004534
107	0x3f7ffa79	0.99991566
108	0x3f7feda1	0.9997197
109	0x3f7fe06d	0.9995182
110	0x3f7fbbc4	0.9989588
111	0x3f8015e1	1.0006677
112	0x3f800d40	1.0004044
113	0x3f80177b	1.0007166
114	0x3f801ca6	1.0008743
115	0x3f7fe641	0.99960715
116	0x3f801131	1.0005246
117	0x3f800d70	1.0004101
118	0x3f7fa6b6	0.99863756
119	0x3f800f3d	1.000465
120	0x3f800663	1.0001949
121	0x3f800809	1.0002452
122	0x3f801d4e	1.0008943
123	0x3f802552	1.0011389
124	0x3f7fdac9	0.99943215
125	0x3f7fe1bc	0.9995382
126	0x3f7fe058	0.99951696
127	0x3f800fd4	1.000483

convs.0.bn1.bias f4 [128]
0	0x39b0e9ca	0.00033743522
1	0x39b3dccd	0.0003430605
2	0x38ee8acd	0.00011374578
3	0x3887270e	6.444576e-05
4	0xb9d221d6	-0.0004007953
5	0x398fd3af	0.00027432802
6	0xb925fa69	-0.00015828911
7	0x39eb1b34	0.0004484296
8	0xb9b8a956	-0.0003522138
9	0x398893a5	0.00026049945
10	0x3a252505	0.0006299767
11	0x385180a8	4.9949304e-05
12	0x37cfa704	2.4754096e-05
13	0x395e70a2	0.00021213529
14	0x38251838	3.936162e-05
15	0xb92fc85c	-0.0001676394
16	0xba1adc50	-0.0005907463
17	0xb90e36cf	-0.00013562593
18	0xb7ff242c	-3.0415213e-05
19	0x3953c834	0.0002019711
20	0xb98569d7	-0.00025446594
21	0xb90665a1	-0.00012817096
22	0xb8e9864b	-0.0001113532
23	0x39a9e259	0.00032402834
24	0x3a16b847	0.00057495054
25	0x3882b074	6.23175e-05
26	0xba9c5256	-0.0011926393
27	0x38a70eae	7.965915e-05
28	0x390d340e	0.000134662
29	0xb9610d06	-0.00021462524
30	0xb9f34b1a	-0.00046404527
31	0xb943d17c	-0.00018674688
32	0xba0fa8ca	-0.00054801686
33	0x39df11ef	0.00042547236
34	0xbaca5456	-0.0015436511
35	0x3992b31c	0.00027980737
36	0x3a12d00c	0.00056004594
37	0xb7d83590	-2.5774149e-05
38	0xb6a38512	-4.87327e-06
39	0xb6be3894	-5.669028e-06
40	0xb975a7aa	-0.0002342748
41	0x39050d68	0.00012688863
42	0x39b2c7f7	0.0003409979
43	0xb90cb637	-0.00013419321
44	0x37e3fb21	2.717745e-05
45	0x381e7dca	3.7787286e-05
46	0xba3664c6	-0.00069577654
47	0x39b6fbca	0.00034901343
48	0x39f4554c	0.00046602858
49	0x398433ac	0.000252155
50	0x3a852c8e	0.0010160373
51	0xb9b24a9a	-0.00034006388
52	0x39ba4c6c	0.00035533623
53	0x3965e713	0.00021925224
54	0xba2c794d	-0.00065793545
55	0x389d7060	7.507275e-05
56	0x38d8fdf6	0.000103469865
57	0x39b0e15d	0.00033737245
58	0x38e8e9ee	0.00011106195
59	0x39fcd048	0.00048220367
60	0xb90e482a	-0.00013569059
61	0xb9d4e770	-0.00040608225
62	0xb752e48e	-1.257019e-05
63	0x394f9c65	0.0001979932
64	0x383062f5	4.205383e-05
65	0xb9978325	-0.00028898675
66	0x38903d4a	6.877871e-05
67	0xb89a8cea	-7.3695395e-05
68	0x39bbb3d4	0.00035801402
69	0xb9178255	-0.00014449035
70	0x3881d0e1	6.190106e-05
71	0xb7f16e1a	-2.8780709e-05
72	0x3707a974	8.086081e-06
73	0xb8b2c826	-8.524982e-05
74	0xb93d7be6	-0.000180706
75	0xb86a7e26	-5.5907432e-05
76	0x38ef0c9c	0.00011398757
77	0xb90abb7f	-0.00013230553
78	0xb69c5f3d	-4.6602495e-06
79	0xb872d755	-5.789784e-05
80	0x398123aa	0.0002463137
81	0x366a83ac	3.494536e-06
82	0xb9a36e79	-0.0003117209
83	0x385e5411	5.3007218e-05
84	0xb79eef58	-1.894652e-05
85	0x394ae1a5	0.0001934828
86	0x383b05c0	4.458963e-05
87	0xba41f81c	-0.0007399337
88	0xb81893ba	-3.6377205e-05
89	0xb8cbf7cc	-9.72595e-05
90	0x3a4f7b47	0.0007914793
91	0xb7decff1	-2.6561293e-05
92	0x38c09e56	9.184766e-05
93	0x38429781	4.6394303e-05
94	0x3a5d6a50	0.0008446323
95	0xb99bf09e	-0.00029743178
96	0x39747b43	0.00023315572
97	0x38b647ae	8.691788e-05
98	0x39e85efb	0.00044321254
99	0x3763ade0	1.3570738e-05
100	0xb89097cb	-6.894729e-05
101	0xb9918ba0	-0.00027760584
102	0x37dc1527	2.6235894e-05
103	0xb806f6a1	-3.217778e-05
104	0xb8a3c55a	-7.809205e-05
105	0xb9496f19	-0.00019210241
106	0xb8e70f0b	-0.0001101774
107	0x379319aa	1.7535716e-05
108	0x38e82ffe	0.00011071561
109	0x393e3ee1	0.00018143236
110	0x39560b30	0.00020412798
111	0xb977ea13	-0.00023642955
112	0xba02539f	-0.0004971567
113	0xb9867262	-0.00025643694
114	0xb99825d9	-0.00029019898
115	0x38d3a2d3	0.000100915924
116	0xb90cc499	-0.00013424679
117	0xb95959e3	-0.00020728218
118	0x3a037c24	0.0005015752
119	0xb936476d	-0.00017383481
120	0xb83040fa	-4.2022184e-05
121	0xb89de110	-7.5282645e-05
122	0xba016573	-0.00049360766
123	0xb9b915ac	-0.00035302097
124	0x395234c6	0.0002004682
125	0x38ddd8e4	0.000105785
126	0x391534f6	0.00014229477
127	0xb97e82a9	-0.00024272002

convs.0.bn1.running_mean f4 [128]
0	0x3daef4c9	0.08542783
1	0xbd7a06bc	-0.06104158
2	0xbd86cd22	-0.06582095
3	0xbd4e3224	-0.050340787
4	0xbd11bf5e	-0.035582893
5	0xbd127edf	-0.035765525
6	0x3d2fc4fe	0.042912476
7	0xbdbe924f	-0.0930525
8	0x3ddbb01a	0.10726948
9	0x3d092638	0.033483714
10	0xbc691c6a	-0.014227966
11	0xbd664652	-0.056219406
12	0xbbb7b107	-0.00560582
13	0xbe3f7b69	-0.18699421
14	0x3dc93cfe	0.098260865
15	0xbdddc4dd	-0.10828564
16	0x3ca52a31	0.02016172
17	0xbc0ba311	-0.008522765
18	0xbca7f476	-0.02050231
19	0xbd8fabf4	-0.07015219
20	0xbd463228	-0.048387676
21	0x3d638bd8	0.055553287
22	0xbc968912	-0.018375907
23	0xbc358d99	-0.011081123
24	0x3dbca97c	0.09212014
25	0x3c8eb857	0.017421884
26	0xbd22c47b	-0.03973816
27	0x3dc638ef	0.09678828
28	0xbc47572a	-0.012166778
29	0xbca4932e	-0.020089712
30	0xbc6422ce	-0.013924314
31	0x3d63f1dc	0.055650577
32	0x3da291b3	0.07937946
33	0xbd044c6e	-0.03229945
34	0x3d20a19a	0.039216615
35	0xbcffb372	-0.031213496
36	0xbc4c7ea9	-0.01248137
37	0x3dc10084	0.094239265
38	0xbd6cc8cf	-0.057808693
39	0x3da92c9e	0.08260463
40	0xbda1c8dc	-0.07899639
41	0xbdb84bdd	-0.08998845
42	0x3e0542fb	0.13013832
43	0xbd52a52e	-0.05142706
44	0x3ca09b59	0.019605326
45	0xbcf56102	-0.029953483
46	0xbca911cf	-0.020638375
47	0x3d54158b	0.051778357
48	0xbda7842d	-0.081795074
49	0x3de13f0b	0.109983526
50	0xbdb85950	-0.0900141
51	0xbc363fae	-0.011123581
52	0x3ae91579	0.0017782889
53	0xbdbe7410	-0.09299481
54	0xbc85cfc5	-0.016334424
55	0x3cf92277	0.030411942
56	0xbd3e4b4b	-0.046458524
57	0x3c40714d	0.011745763
58	0x3d9c98cd	0.07646332
59	0xbb77b130	-0.003779482
60	0xbd5c37e1	-0.053764228
61	0xbcdf3c40	-0.02725041
62	0x3d398e94	0.04530199
63	0x3abf2e94	0.0014586025
64	0xbc891d1a	-0.01673751
65	0xbd0d16c2	-0.03444553
66	0xbda16a96	-0.07881658
67	0x3db8238e	0.089911565
68	0x3d3079b8	0.04308483
69	0xbdfc0b0b	-0.12306794
70	0x3d20a8d8	0.039223522
71	0xbc2e8077	-0.010650746
72	0x3d031568	0.032002836
73	0xbcd63d4f	-0.026152281
74	0xbd4928d3	-0.0491112
75	0x3d2edb00	0.042689323
76	0xbd671f55	-0.056426365
77	0x3d1fc395	0.03900488
78	0x3d87ccd7	0.06630867
79	0x3d81ce21	0.06338144
80	0xbd9f1d96	-0.07769315
81	0x3d8480b4	0.06469861
82	0xbd987412	-0.07444014
83	0xbd86096b	-0.06544765
84	0xbc94d446	-0.018167626
85	0x3dad2342	0.084539905
86	0x3dcb7cdd	0.09935925
87	0x3c10ab46	0.008829897
88	0xbd3a4d55	-0.045483906
89	0xbe0384d8	-0.12843645
90	0xbc5674b4	-0.013089348
91	0xbdc00102	-0.09375192
92	0x3cbaae3f	0.022788165
93	0xbe025193	-0.1272643
94	0x3c21f572	0.009885179
95	0xbd0b564c	-0.034017846
96	0xbdcd78e5	-0.100328244
97	0x3d3941bc	0.045228705
98	0xbdb3c5f7	-0.08777993
99	0xbd89c1ef	-0.06726443
100	0xbba00ea9	-0.00488456
101	0x3b330a05	0.0027319205
102	0xbd6a20b1	-0.057160083
103	0xbc9ecea2	-0.01938564
104	0x3be920ac	0.0071144905
105	0x3d676ebf	0.0565021
106	0x3c9eade4	0.019370027
107	0xbd5b669b	-0.05356465
108	0xbe1116aa	-0.14168802
109	0x3c62fb38	0.0138538405
110	0x3d3aaca0	0.045574784
111	0xbdf20b05	-0.11818508
112	0x3d910b88	0.070822775
113	0x3ce5156b	0.027964314
114	0xbc866951	-0.01640764
115	0xbc43e85d	-0.011957255
116	0xbca39450	-0.019968182
117	0xbcfec8d8	-0.03110163
118	0xbd885d6f	-0.06658446
119	0x3e09787f	0.13424872
120	0x3cdd031c	0.026979022
121	0x3cac91fd	0.021065706
122	0xbd21985d	-0.039451946
123	0xbd21a978	-0.03946826
124	0x3de980e6	0.114015386
125	0x3d06bde6	0.032895945
126	0xbca93e08	-0.020659462
127	0xbcd6f9b5	-0.026242116

convs.0.bn1.running_var f4 [128]
0	0x3e3fb67c	0.18721956
1	0x3e434cd9	0.19072284
2	0x3e448ace	0.19193575
3	0x3e461f48	0.1934787
4	0x3e458a95	0.19291146
5	0x3e45b480	0.19307137
6	0x3e4140e6	0.18872413
7	0x3e407567	0.18794785
8	0x3e438790	0.19094682
9	0x3e42cd62	0.1902366
10	0x3e41d7cd	0.18929978
11	0x3e44dca9	0.192248
12	0x3e462211	0.19348933
13	0x3e4381fc	0.19092554
14	0x3e41552d	0.18880148
15	0x3e4a9200	0.19782257
16	0x3e435be6	0.19078025
17	0x3e4bbf55	0.19897206
18	0x3e43b744	0.19112879
19	0x3e40db50	0.18833661
20	0x3e4234f9	0.1896552
21	0x3e431059	0.19049205
22	0x3e41d486	0.18928728
23	0x3e4444e2	0.19166902
24	0x3e44fae9	0.1923634
25	0x3e4200e9	0.1894566
26	0x3e455e82	0.19274333
27	0x3e42caca	0.1902267
28	0x3e4593dd	0.19294687
29	0x3e42a3b2	0.19007757
30	0x3e4927a0	0.19644022
31	0x3e42d376	0.19025978
32	0x3e4565b7	0.19277082
33	0x3e4333d7	0.19062744
34	0x3e459c78	0.1929797
35	0x3e47bb4c	0.19505042
36	0x3e47a4d2	0.19496468
37	0x3e444987	0.19168673
38	0x3e4e44cb	0.2014343
39	0x3e462e3d	0.19353576
40	0x3e40eb3d	0.18839736
41	0x3e43a91d	0.1910748
42	0x3e48e9fc	0.19620508
43	0x3e446b0c	0.1918146
44	0x3e42f216	0.19037661
45	0x3e40bb84	0.18821532
46	0x3e434d28	0.19072402
47	0x3e44aa1f	0.19205521
48	0x3e498399	0.19679107
49	0x3e42f185	0.19037445
50	0x3e3fdf37	0.18737493
51	0x3e44d211	0.19220759
52	0x3e4325f6	0.1905745
53	0x3e463f0c	0.19359988
54	0x3e442232	0.1915367
55	0x3e41cbd0	0.18925405
56	0x3e43aff2	0.19110087
57	0x3e4784b3	0.19484214
58	0x3e44145b	0.1914839
59	0x3e47a920	0.1949811
60	0x3e4304ee	0.1904485
61	0x3e4fe658	0.20302713
62	0x3e46de5a	0.19420758
63	0x3e41bf68	0.18920672
64	0x3e409819	0.1880802
65	0x3e40e063	0.18835597
66	0x3e418b98	0.18900907
67	0x3e487cc8	0.1957885
68	0x3e425b46	0.1898013
69	0x3e446d5c	0.19182342
70	0x3e4f92ac	0.20270795
71	0x3e47c398	0.19508207
72	0x3e4059fa	0.18784323
73	0x3e428575	0.18996222
74	0x3e431708	0.19051754
75	0x3e41c0a8	0.18921149
76	0x3e417d3e	0.18895432
77	0x3e44e1c0	0.19226742
78	0x3e42e261	0.19031669
79	0x3e4505e2	0.19240525
80	0x3e405479	0.18782224
81	0x3e461dd8	0.19347322
82	0x3e4852b0	0.19562793
83	0x3e440ba8	0.19145072
84	0x3e41123a	0.18854609
85	0x3e40f0d7	0.18841873
86	0x3e40aaef	0.18815206
87	0x3e3fd14f	0.18732189
88	0x3e41de09	0.18932356
89	0x3e44bdd4	0.19213039
90	0x3e40cf8a	0.1882917
91	0x3e430a17	0.19046818
92	0x3e414e9d	0.18877645
93	0x3e48f21f	0.19623612
94	0x3e44247e	0.19154546
95	0x3e417c72	0.18895128
96	0x3e4250c9	0.1897613
97	0x3e453cd3	0.19261484
98	0x3e4a4e1a	0.19756356
99	0x3e437b5a	0.19090024
100	0x3e43b358	0.19111383
101	0x3e43c9e3	0.19119982
102	0x3e4932ce	0.19648287
103	0x3e45b552	0.1930745
104	0x3e40af4d	0.18816872
105	0x3e44336b	0.1916024
106	0x3e43e616	0.1913074
107	0x3e4029e0	0.18765974
108	0x3e459200	0.19293976
109	0x3e4229b9	0.18961228
110	0x3e43b50e	0.19112036
111	0x3e48c0a7	0.19604741
112	0x3e40aadb	0.18815176
113	0x3e40fda7	0.1884676
114	0x3e423da8	0.18968832
115	0x3e44cac3	0.19217972
116	0x3e4d950a	0.20076385
117	0x3e422786	0.1896039
118	0x3e465c3c	0.19371122
119	0x3e47a503	0.1949654
120	0x3e4455bf	0.19173335
121	0x3e4c49dc	0.1995005
122	0x3e438c4a	0.19096485
123	0x3e47512b	0.19464557
124	0x3e48c7c2	0.19607452
125	0x3e48f3b9	0.19624223
126	0x3e426661	0.18984367
127	0x3e3fd84e	0.18734857

convs.0.bn2.weight f4 [64]
0	0x3f7ee449	0.99567086
1	0x3f7fa437	0.99859947
2	0x3f7f4814	0.9971936
3	0x3f7f48c8	0.9972043
4	0x3f8004fb	1.000152
5	0x3f7f43d3	0.99712867
6	0x3f7f923b	0.99832505
7	0x3f7f9326	0.99833906
8	0x3f7f7f52	0.9980365
9	0x3f7f4ec2	0.9972955
10	0x3f7fd57d	0.9993513
11	0x3f80035e	1.0001028
12	0x3f7ffd08	0.9999547
13	0x3f7f0ac9	0.9962583
14	0x3f7f8a56	0.9982046
15	0x3f801d14	1.0008874
16	0x3f7fda57	0.99942535
17	0x3f8014c7	1.0006341
18	0x3f807a27	1.0037278
19	0x3f7f6458	0.9976249
20	0x3f804bb2	1.00231
21	0x3f7faf14	0.99876523
22	0x3f7fb99a	0.9989258
23	0x3f807f7f	1.0038909
24	0x3f7fd68e	0.9993676
25	0x3f800e36	1.0004337
26	0x3f7e6864	0.9937804
27	0x3f7f527e	0.9973525
28	0x3f7e0bfe	0.9923705
29	0x3f7f96a7	0.9983925
30	0x3f7f0591	0.9961787
31	0x3f7fb56c	0.998862
32	0x3f804b59	1.0022994
33	0x3f7eb2f3	0.99491805
34	0x3f806803	1.0031742
35	0x3f7fbc17	0.9989638
36	0x3f7f0878	0.996223
37	0x3f8003c1	1.0001146
38	0x3f801bb8	1.0008459
39	0x3f7fa9be	0.9986838
40	0x3f801198	1.0005369
41	0x3f8006d4	1.0002084
42	0x3f7f7ba1	0.9979802
43	0x3f8043f4	1.0020738
44	0x3f7fa87d	0.9986647
45	0x3f7fc302	0.99906933
46	0x3f8066ad	1.0031334
47	0x3f8001d2	1.0000556
48	0x3f801e1a	1.0009186
49	0x3f7f3551	0.9969073
50	0x3f7f808c	0.9980552
51	0x3f7fd4cd	0.99934083
52	0x3f7fd1cd	0.99929506
53	0x3f7fdbeb	0.99944943
54	0x3f800d21	1.0004007
55	0x3f802428	1.0011034
56	0x3f7fafb3	0.9987747
57	0x3f7eb2b5	0.99491435
58	0x3f804c6b	1.0023321
59	0x3f7f4aa0	0.99723244
60	0x3f8015e6	1.0006683
61	0x3f7fc15b	0.9990441
62	0x3f7f91b2	0.9983169
63	0x3f8026a7	1.0011796

convs.0.bn2.bias f4 [64]
0	0xbb3961cd	-0.0028287054
1	0xbb077b1c	-0.0020672744
2	0xbb3a59ec	-0.0028434945
3	0xbb4d4b3e	-0.0031325365
4	0xb871ee0f	-5.7680587e-05
5	0xbb3eae93	-0.0029095754
6	0xbb034750	-0.002003152
7	0xbb0802b9	-0.0020753576
8	0xbb604011	-0.0034217874
9	0xbb02e5fa	-0.0019973502
10	0xbae0b5c4	-0.0017144014
11	0xbb074274	-0.0020638974
12	0xb98dc1a4	-0.0002703789
13	0xbba77135	-0.005109931
14	0xbaa8406a	-0.001283658
15	0xba9ce66d	-0.0011970528
16	0xba25c5f0	-0.00063237455
17	0x38af840c	8.369246e-05
18	0xb8874bb7	-6.4514046e-05
19	0xbb317dc1	-0.0027083012
20	0x393ad01d	0.0001781587
21	0xba862376	-0.0010233957
22	0xbaecc619	-0.0018064409
23	0x3a38f7f2	0.00070559897
24	0x3a38ac78	0.0007044743
25	0xba6d5703	-0.0009053798
26	0xbbae7d72	-0.005325013
27	0xbb3e956e	-0.0029080766
28	0xbb894eda	-0.004190308
29	0xba19d707	-0.00058685284
30	0xbae14802	-0.0017187598
31	0xbb16b026	-0.0022993176
32	0x3a3d9a56	0.00072327757
33	0xbb3aeb8c	-0.0028521745
34	0xba9412b0	-0.0011297073
35	0x3985d0f3	0.00025523416
36	0xbb157d33	-0.002281022
37	0xbb46c0f7	-0.0030327418
38	0x3a9008fe	0.0010989008
39	0xbad00542	-0.0015870708
40	0xb9cd379a	-0.00039142073
41	0xb99e259a	-0.00030164124
42	0xbad61692	-0.0016333631
43	0x3b43ac2c	0.002985726
44	0xbad1b861	-0.0016000384
45	0xbb730266	-0.0037080287
46	0xb9578033	-0.00020551756
47	0xb9d64b26	-0.0004087325
48	0xbb044657	-0.0020183527
49	0xbb209d9a	-0.0024508
50	0xba949778	-0.0011336645
51	0xb9bd6fbf	-0.00036132146
52	0xb9fffcd9	-0.00048825776
53	0xbb2a5cc2	-0.002599523
54	0x3a293f17	0.00064562395
55	0xbad54664	-0.0016271588
56	0xba930f0a	-0.0011219692
57	0xbba6f3f3	-0.005094999
58	0x3aab23a4	0.0013056886
59	0xbba6dbbf	-0.0050921137
60	0xba70d4e4	-0.00091869966
61	0xbb2a17aa	-0.0025954046
62	0xbab8a6f4	-0.0014087842
63	0xbac9b7fb	-0.0015389913

convs.0.bn2.running_mean f4 [64]
0	0x408d9d7c	4.425474
1	0x4086e0ae	4.2149267
2	0x409099e4	4.5187855
3	0x407b8f6a	3.9306283
4	0x40611ee2	3.51751
5	0x408be329	4.3714795
6	0x405c9918	3.446844
7	0x40785234	3.8800173
8	0x406e324e	3.7218204
9	0x4080c8f8	4.0245323
10	0x4089f89a	4.311597
11	0x408be8b8	4.372158
12	0x4069256b	3.6429088
13	0x4073e61b	3.8109195
14	0x4083b926	4.116351
15	0x4088ee60	4.2790985
16	0x407ac03b	3.9179828
17	0x40940dba	4.6266756
18	0x40886a76	4.2629957
19	0x4085b204	4.1779804
20	0x406e2641	3.7210848
21	0x4085fad2	4.1868677
22	0x4080277b	4.0048194
23	0x405c88a8	3.4458408
24	0x4064aa97	3.572912
25	0x407c316f	3.9405172
26	0x40736dd2	3.803578
27	0x4082aace	4.08335
28	0x408e63a4	4.449663
29	0x4083ecb4	4.1226444
30	0x405b346f	3.4250753
31	0x40766dbf	3.8504484
32	0x40809ef4	4.0194035
33	0x4080ed67	4.02898
34	0x4056cee5	3.3563778
35	0x406d23c4	3.705308
36	0x40814451	4.0395894
37	0x40817829	4.045918
38	0x4077b3c4	3.870347
39	0x4088c3f0	4.273918
40	0x407cf9ad	3.952739
41	0x4090cceb	4.5250144
42	0x4082504e	4.072303
43	0x4078a6ed	3.8851883
44	0x40893660	4.2878876
45	0x40773bcb	3.8630245
46	0x405db908	3.4644184
47	0x408421ba	4.129117
48	0x40808563	4.0162826
49	0x4084a17c	4.1447124
50	0x408a3528	4.318989
51	0x4080e131	4.027489
52	0x40752537	3.8303964
53	0x4078e37f	3.8888853
54	0x405cd3b4	3.4504213
55	0x4071290a	3.7681298
56	0x407922e2	3.892754
57	0x4089ab4c	4.3021603
58	0x406a424f	3.6602972
59	0x405c3679	3.4408247
60	0x407a56d0	3.9115486
61	0x40894f62	4.2909403
62	0x407a5921	3.91169
63	0x40859b27	4.1751895

convs.0.bn2.running_var f4 [64]
0	0x412bdc2d	10.741254
1	0x4091a9c5	4.551974
2	0x40f65fd4	7.699198
3	0x40de4e29	6.947041
4	0x4006d7c3	2.106919
5	0x407ff553	3.9993484
6	0x3fb0158c	1.3756576
7	0x40cc269f	6.3797145
8	0x4024e83c	2.5766745
9	0x40ea346e	7.3189
10	0x405ee702	3.4828496
11	0x412ddf83	10.867068
12	0x4089af96	4.302684
13	0x400709da	2.1099763
14	0x40b6be59	5.710736
15	0x41366aa7	11.401038
16	0x40bfd810	5.995125
17	0x414af4e1	12.684785
18	0x40409e2d	3.0096543
19	0x410b3a82	8.701784
20	0x40c97b9e	6.29634
21	0x41337c27	11.217811
22	0x40e9a8c1	7.30185
23	0x40255c85	2.583772
24	0x40256085	2.584016
25	0x40c09d43	6.019197
26	0x40b1afd9	5.552716
27	0x409afb00	4.8431396
28	0x407ce7ee	3.9516559
29	0x41147ec0	9.280945
30	0x3fa83e3d	1.3143994
31	0x40c7fc7a	6.24957
32	0x40937f88	4.609318
33	0x4079ef51	3.9052317
34	0x402d4878	2.7075481
35	0x4097606b	4.73052
36	0x40e208ed	7.0635896
37	0x40e6c6eb	7.211782
38	0x40f23f2a	7.5702105
39	0x408e1840	4.44046
40	0x403a4dae	2.9109912
41	0x40b753d6	5.728984
42	0x3ff86571	1.9405957
43	0x40c66186	6.1994047
44	0x40c74714	6.2274265
45	0x40f2cdd9	7.587628
46	0x40127f85	2.2890332
47	0x400ef428	2.233652
48	0x40f681e1	7.7033544
49	0x40e20629	7.063252
50	0x4112b076	9.168081
51	0x40d60146	6.6876554
52	0x40d7776e	6.733329
53	0x409eb7b4	4.9599247
54	0x402b139a	2.6730714
55	0x40295302	2.6456914
56	0x40aaf1c0	5.3420105
57	0x41167a96	9.404928
58	0x406d624f	3.7091253
59	0x403072d1	2.7570078
60	0x409e8be0	4.9545746
61	0x409c6729	4.887593
62	0x40cc3539	6.381497
63	0x413b39e7	11.701636

convs.1.fc_full.weight f4 [128, 169]
0	0xbd60973f	-0.05483174
1	0xbd1b3006	-0.037887596
2	0x3c6b0807	0.014345176
3	0x3b700292	0.0036622626
4	0xbd0989e8	-0.033578783
5	0x3c09f7d5	0.008420904
6	0xbc0b8577	-0.008515707
7	0xbd5a4544	-0.053288713
8	0x3d765f30	0.06014937
9	0xbd60bbdf	-0.054866668
10	0xbb896492	-0.004192897
11	0x3d6f7f46	0.058470987
12	0x3bbce918	0.0057650916
13	0xbc8b784c	-0.017025135
14	0xbd197412	-0.03746421
15	0x3d94d32f	0.072668426
16	0xbcf9590b	-0.030437967
17	0xbd4cf6f5	-0.050040204
18	0x3bb9d46d	0.005671075
19	0xbb44def5	-0.003004012
20	0xbd60b80c	-0.05486302
21	0xbd52ba2d	-0.051447082
22	0xbd8f99f9	-0.0701179
23	0xbd9415b7	-0.07230704
24	0xbd9b8bed	-0.07595048
25	0xbd4ab7e2	-0.04949177
26	0xbca33773	-0.019923901
27	0x3d5b5754	0.05355008
28	0xbca57a7f	-0.020200012
29	0x3d4b989f	0.049706098
30	0x3cd1069d	0.025515849
31	0x3d24f5cd	0.040273476
32	0xbd762b1d	-0.06009971
33	0xbd4f0333	-0.05054016
34	0xbd5a6fd7	-0.053329315
35	0xbd6464f7	-0.05576035
36	0xbcd97138	-0.026543245
37	0x3d910517	0.07081049
38	0x3d1f33e9	0.038867865
39	0x3d1c052e	0.038090877
40	0x3d98dc90	0.07463944
41	0x3d27646f	0.040867265
42	0xbd57d8ce	-0.052696995
43	0xbd13fca1	-0.036129598
44	0x3d843f6f	0.064574115
45	0xbd39fe57	-0.045408573
46	0xbcd6ca6a	-0.026219565
47	0xbc9cf17b	-0.019158116
48	0xba3b549d	-0.0007146092
49	0xbd70f24b	-0.05882482
50	0x3d33b9c8	0.043878347
51	0xbd3949d9	-0.045236442
52	0x3d8f741f	0.0700457
53	0x3d0d16de	0.034445636
54	0xbd97dfb6	-0.07415716
55	0xbd440a19	-0.047861192
56	0x3d7eb636	0.06218549
57	0xbd06f939	-0.03295252
58	0x3cce19ad	0.025158728
59	0x3c8e9b1c	0.017407946
60	0xbc669cc5	-0.014075463
61	0xbb80bc28	-0.00392868
62	0xbd5d4920	-0.054024816
63	0xbd82fa43	-0.0639539
64	0xbd85d417	-0.065345936
65	0xbcba9e41	-0.02278054
66	0x3d63e04e	0.055633835
67	0xbce2a084	-0.02766443
68	0xbcd082d6	-0.025453012
69	0xbce535e7	-0.027979804
70	0x3d5cc4b4	0.05389853
71	0x3ce39f97	0.02778606
72	0x3d80ac33	0.062828444
73	0x3b178220	0.0023118332
74	0x3d1dac17	0.038494196
75	0x3d6f15fe	0.058370583
76	0x3d8592ea	0.06522162
77	0xbd2adc4c	-0.041713998
78	0xbd4b71c8	-0.049669057
79	0xbd5415c9	-0.05177859
80	0x3d1317bc	0.035911307
81	0x3c0d1212	0.008610265
82	0xbbd123f4	-0.00638246
83	0x3bfde3c6	0.0077481
84	0xbc27250d	-0.010201705
85	0x3cfc22f4	0.030778386
86	0x3ce520c6	0.02796973
87	0x3d8c0d68	0.068384945
88	0xbd43fd1f	-0.047848817
89	0x3d7eb198	0.062181085
90	0x3d48c66d	0.04901736
91	0xbd937e34	-0.07201806
92	0x3cffd813	0.031230962
93	0xbd6f510f	-0.058426913
94	0x3d6ca8b4	0.057778075
95	0xbd9c8f9c	-0.07644579
96	0xbd2a991a	-0.041649915
97	0x3a890c72	0.001045598
98	0xbd55d430	-0.05220431
99	0x3ce6cf62	0.02817506
100	0x3d8d7969	0.06907923
101	0xbd938128	-0.07202369
102	0xbd94a69b	-0.0725834
103	0x3d92e236	0.071720526
104	0xbc2e0e7f	-0.010623573
105	0x3c74fa21	0.0149522135
106	0x3d837118	0.06418055
107	0x3d4dbc78	0.050228566
108	0x3d86aaca	0.06575544
109	0x3d513e18	0.051084608
110	0xbd3b66e7	-0.045752432
111	0xbd8c0e4f	-0.06838667
112	0x3d5163bd	0.05112051
113	0x3d542707	0.051795032
114	0x3d88314f	0.0665003
115	0x3d0817bb	0.033225756
116	0xbd0c74e3	-0.03429116
117	0xbd337985	-0.043817062
118	0xbc79a319	-0.015236639
119	0x3d717bb7	0.058955874
120	0xbd6b1d3f	-0.057400938
121	0xbd88fee3	-0.06689241
122	0xbc971e42	-0.018447045
123	0x3c59532b	0.013264458
124	0xbc9ee3d4	-0.019395746
125	0xbd80a64a	-0.06281717
126	0x3c144564	0.009049747
127	0x3cc472e1	0.02398056
128	0xbb8e81e0	-0.0043489784
129	0x3d595d06	0.05306723
130	0x3c7c764a	0.015409062
131	0x3ca92cde	0.020651277
132	0xbd8ffbef	-0.070304744
133	0xbbaaffc9	-0.0052184802
134	0xbd11a21e	-0.035554998
135	0xbd09e26e	-0.033663206
136	0x3cd1729f	0.02556735
137	0x3d43f8e7	0.047844794
138	0x3a861897	0.0010230717
139	0xbbf860d8	-0.007579904
140	0x3d4185f2	0.04724688
141	0x3d8ccb25	0.06874684
142	0x3c67d296	0.014149329
143	0xbd46013e	-0.04834103
144	0x3d2cfd56	0.042233787
145	0xbd8dc80d	-0.06922922
146	0xbd8ed11c	-0.06973478
147	0x3ccf2675	0.025286892
148	0x3bef4b5d	0.007302685
149	0xbba8937b	-0.005144534
150	0xbd4d6fba	-0.05015538
151	0x3d176389	0.03696016
152	0xbcb947b8	-0.022617206
153	0x3d54a2b3	0.051912975
154	0xbd8bafdf	-0.06820654
155	0x3d3eeed0	0.046614468
156	0x3d803e41	0.06261874
157	0x3d4d6736	0.050147258
158	0x3d90c447	0.07068687
159	0xbd8cdd15	-0.068781056
160	0xbd2a9a37	-0.041650977
161	0xbd0fa640	-0.035070658
162	0xbd1baf37	-0.038008895
163	0x3bd09660	0.0063655823
164	0x3d09f650	0.033682168
165	0x3cc740ec	0.02432295
166	0x3d787f6e	0.0606684
167	0x3d9442d7	0.07239311
168	0xbd2d8faa	-0.042373337
169	0xbcbafe49	-0.02282633
170	0xbd6aaaf5	-0.057291944
171	0xbd991c0a	-0.07476051
172	0xbbea0595	-0.0071417787
173	0x3d8eada3	0.06966712
174	0x3cf023fa	0.02931403
175	0xbca680f2	-0.020325158
176	0x3ce04c72	0.027380202
177	0xbb2f401d	-0.0026741095
178	0xbd61e09f	-0.055145856
179	0x3d8549b9	0.06508202
180	0xbcd8a9a4	-0.026448078
181	0x3c532fcd	0.012889815
182	0xbd3f3169	-0.04667798
183	0xbd5170a7	-0.051132824
184	0x3be6238b	0.00702328
185	0xbd12e34d	-0.035861302
186	0x3d323eff	0.04351711
187	0x3c81af6c	0.015830718
188	0x3c1771a2	0.009243401
189	0x3d852958	0.06502026
190	0x3d7eb911	0.06218821
191	0xbc1997a0	-0.009374529
192	0xbd6a062b	-0.05713479
193	0x3d1717b1	0.03688783
194	0x3c9583e0	0.01825136
195	0x3d43e560	0.04782617
196	0x3c81def5	0.015853385
197	0xbcf10ee8	-0.029426053
198	0xbd21610d	-0.039399195
199	0xbd45db7a	-0.048305012
200	0xbcf1e343	-0.029527312
201	0x3d713f59	0.058898304
202	0xbd814b57	-0.06313198
203	0x3ce05f94	0.027389325
204	0x3c7538b6	0.014967134
205	0x3b56649f	0.0032713783
206	0xbc6d4cf4	-0.014483679
207	0xb9dc55a9	-0.00042025492
208	0x3d8a4484	0.067513496
209	0xbd9717c9	-0.073775835
210	0xbbb4a6eb	-0.0055130622
211	0x3cf1a457	0.029497309
212	0x3cd94cdd	0.02652591
213	0x3d848b46	0.06471877
214	0x3d896e7f	0.067105286
215	0x3d9805f6	0.07423012
216	0x3d94588f	0.07243454
217	0x3d9a75a0	0.075419664
218	0x3a38d511	0.00070507923
219	0x3cd5508a	0.02603938
220	0x3c829ec6	0.01594485
221	0x3d6a423c	0.057192072
222	0xbd41d5be	-0.04732298
223	0x3d0e8223	0.034792077
224	0x3cbdd158	0.023171112
225	0x3d6f8366	0.05847492
226	0xbd9e6158	-0.077334106
227	0x3c9f300e	0.019432094
228	0x3c6d10ea	0.014469365
229	0xbcb1ff6b	-0.021728238
230	0x3d6589c5	0.05603959
231	0x3d44977d	0.047996033
232	0xbd0a9b03	-0.033839237
233	0x3d1b4828	0.03791061
234	0xbd7e6f95	-0.06211813
235	0x3cfc62e0	0.030808866
236	0x3d33ce9e	0.043898217
237	0xbcdaa3e8	-0.026689485
238	0x3cfad0a5	0.030617068
239	0x3d8974c8	0.067117274
240	0xbd82615e	-0.063662276
241	0x3d9a2861	0.07527233
242	0xbd9a7daa	-0.075435
243	0xbd7ad84d	-0.061241437
244	0x3d13b2b5	0.0360591
245	0x3c8ab3dc	0.016931467
246	0xbd572484	-0.05252506
247	0xbd314275	-0.04327627
248	0x3b0402ce	0.0020143273
249	0x3d9629a6	0.073321626
250	0xbc124c7c	-0.008929368
251	0x3d8cccc4	0.068749934
252	0xbc906b52	-0.0176293
253	0x3cf1a05e	0.029495414
254	0xbd871dbb	-0.065974675
255	0xbd5b5edc	-0.05355726

convs.1.fc_full.bias f4 [128]
0	0xbd72b7fe	-0.0592575
1	0x3d14d67e	0.03633737
2	0xbd70d6e3	-0.058798682
3	0x3cef1d1c	0.029188685
4	0xbd18044d	-0.037113477
5	0x3d22db6a	0.03976003
6	0xbd2916e0	-0.04128158
7	0x3d3452ef	0.044024404
8	0x3d0cb602	0.034353264
9	0xbd9c7ef8	-0.07641405
10	0x3b397ede	0.0028304379
11	0x3ce36700	0.027759075
12	0xbd38ef54	-0.045150116
13	0xbc86f2e8	-0.016473249
14	0x3ccbece0	0.024893224
15	0xbcb8dadb	-0.022565296
16	0x3d29467c	0.041326985
17	0x3d752af6	0.059855424
18	0x3d86c479	0.06580443
19	0x3d4464a0	0.047947526
20	0x3ca72e54	0.020407833
21	0xbc3aaa88	-0.011393197
22	0xbc947937	-0.018124206
23	0x3ba4b540	0.0050264895
24	0x3d968ba7	0.07350855
25	0xbcf20d32	-0.029547308
26	0x3d03dd80	0.03219366
27	0x3d63fade	0.055659167
28	0x3d40eb76	0.047099553
29	0x3d020f9c	0.031753168
30	0x3d98d46f	0.074623935
31	0x3d2716e6	0.040793322
32	0xbcf5f3a8	-0.03002341
33	0xbd9767a9	-0.073928185
34	0x3d092ffd	0.03349303
35	0x3bfd26a2	0.0077255527
36	0x3d79f9a0	0.061029077
37	0x3d444f3f	0.047927137
38	0x3b788639	0.00379218
39	0xbd663c43	-0.056209814
40	0x3c40a57c	0.011758205
41	0x3d28e102	0.04123021
42	0x3ce6c5a0	0.028170407
43	0xbc97d7ec	-0.018535577
44	0xb9e15037	-0.0004297511
45	0x3d15e2d0	0.03659326
46	0x3d82b89b	0.06382867
47	0x3d4326bc	0.04764436
48	0x3c2eb780	0.010663867
49	0xbcebccc2	-0.02878416
50	0xbc852076	-0.01625083
51	0xbd067b0a	-0.032832183
52	0x3cccb156	0.024986904
53	0x3d2c398c	0.04204707
54	0xbd7fbf46	-0.062438272
55	0xbd0c3a52	-0.034235306
56	0x3b1a25ee	0.0023521143
57	0x3cd6fb96	0.026243012
58	0x3d777ee2	0.06042374
59	0xbd25a565	-0.040440936
60	0x39b0d1a3	0.00033725527
61	0xbcf8eee1	-0.030387344
62	0x3c564b36	0.013079455
63	0xbd239839	-0.039940093
64	0x3a040707	0.00050364475
65	0xbd0cf736	-0.034415446
66	0xbb55acae	-0.0032604146
67	0xbc73e6db	-0.014886583
68	0xbd45ba62	-0.04827345
69	0x3ceda924	0.029011317
70	0xbcb84cc5	-0.022497544
71	0xbc16d3e8	-0.009205796
72	0x3d701e60	0.058622718
73	0xbce60c06	-0.028081905
74	0x3b8e5068	0.0043430813
75	0x3c842310	0.01613
76	0x3ce3f64b	0.027827403
77	0xbd8c58b4	-0.06852856
78	0xbd89e422	-0.06732966
79	0x3d54d9ba	0.051965453
80	0xbb61afb8	-0.0034437012
81	0x3d954be1	0.072898634
82	0xbd372f54	-0.04472287
83	0xbd05b2a1	-0.032641057
84	0xbd07dd20	-0.033169866
85	0xbc8ca1d8	-0.017167017
86	0xbc3f4480	-0.0116740465
87	0x3cf16386	0.029466402
88	0xbd059f4f	-0.03262263
89	0x3cd42276	0.025895339
90	0x3c85311b	0.016258767
91	0xbd3fb46d	-0.046802927
92	0xbc63306b	-0.013866524
93	0xbb8fe80b	-0.0043916753
94	0x3d0b1bfd	0.03396224
95	0xbc6b4a25	-0.014360939
96	0x3d46f162	0.048570044
97	0xbd1b0a52	-0.03785164
98	0x3ca61a69	0.020276265
99	0xbd0d4734	-0.034491733
100	0xbd3eccc5	-0.046582002
101	0x3d1244a7	0.035710003
102	0xbce3aa6a	-0.02779122
103	0xbccfb0aa	-0.025352795
104	0xbd2fc705	-0.04291441
105	0x3d6e9e42	0.058256395
106	0x3d0fda58	0.03512034
107	0x3d7c643a	0.06161902
108	0x3b9303b0	0.0044865236
109	0x3d87440d	0.066047765
110	0xbbb3baaa	-0.0054848986
111	0xbce8ed5d	-0.028433496
112	0xbd6b2592	-0.057408877
113	0xbb27b86b	-0.00255921
114	0x3d3fff56	0.046874367
115	0x3d2ada96	0.041712366
116	0x3cf3e912	0.029774223
117	0x3ca37b0e	0.019956138
118	0x3d498b63	0.049205195
119	0xbd7fc248	-0.06244114
120	0x3d339730	0.043845356
121	0x3d52920a	0.051408805
122	0xbc56585f	-0.013082593
123	0xbd98d054	-0.074616104
124	0xbc598994	-0.01327743
125	0x3d1ca5ef	0.038244184
126	0x3c52ec45	0.012873714
127	0x3d4e1dfa	0.050321557
