MachineLearningPredictionModels_PTHFiles/wtrmodel_best.pth.tar (torch, 673606 bytes, 58 tensors)

embedding.weight f4 [64, 92]
00000000: 1100 b53c c50a aa3d 8ef4 a5bd 7085 dbbb
00000010: 0084 7a3b 74bc 1dbd 403b c5bb 2a50 d9bd
00000020: 59d6 c33d 25fa 89bd 0817 6bbd cf81 d03d
00000030: cc65 9fbc 0e5c 133d 6fdc 32bd f26e e5bc
00000040: ea77 0d3d f272 be3d 1681 4dbd dc87 c2bd
00000050: f5c1 513d cc59 9a3d 9a8a f8bc 6204 b4bd
00000060: 6569 a8bd 25df 923d ceb6 443d 3fe2 7ebc
00000070: 4413 083d cd08 65bd 65ba ce3c b154 06bd
00000080: a635 5abd 8703 b23d 2669 d8bd 81bb c6bd
00000090: 5cab 09bc 0457 acbd a280 ab3d 6b78 613d
000000a0: 0b01 623c 1068 6dbc 463c 7ebc 200c b8bb
000000b0: 3019 5c3c be75 b6bd 9178 debc 71b3 bd3c
000000c0: 2492 d43c 94ef 8e3d 97fa adbd 7288 bdbc
000000d0: fa2d 22ba d71b 60bd 541e 90bd 5440 cebc
000000e0: d36a d33d cc83 8bbd 5042 a8bd d612 623d
000000f0: 2364 eabc 2619 963c e807 b8bd da4d 94bd
00000100: ba9d 4bbc b94f 9ebd eadf 5c3d 9faf a3bd
00000110: 20b2 c4bb eb88 a73d 1286 59bd ef3c 8b3d
00000120: 9c11 b13c af0f a33b f9ba a7bd 709b 8d3d
00000130: b2bc 82bd fdec 863d a372 fd3c 990f c43c
00000140: 062f 9f3d ad8f 9bbb 883a d33d 54c3 a23d
00000150: d9cd 8f3d ca33 093d 2e0e 74bd 23ec 213d
00000160: 4610 f3bc 2ae5 3c3d 1af5 273d fd0d d5bd
00000170: bfc7 c63c de6b c03c 9fb6 5cbd cfe9 d33d
00000180: fcef babc 20f2 373c 4904 a13d a356 763c
00000190: e061 a1bb 1600 9dbd ff55 c03d 51af 9e3d
000001a0: f5e0 c53d 86af 1fbd c214 94bd 54ff a73d
000001b0: 538f bdbd e232 95bd 0892 653c 6d5e 9f3d
000001c0: 9dc6 60bd 5dac b1bd 2f72 b7bd d010 8c3c
000001d0: 6835 b3bd e8bc 2dbc 849c a2bc c6bc 3dbd
000001e0: afab 803d 073a 04bd 76b5 8f3d 960e 34bd
000001f0: 1835 a9bd d513 6e3d 1256 6fbd 415e 1b3d
00000200: b21f 2a3d 9bee 94bd 8819 65bc e4d9 2cbd
00000210: 0bc6 183b 1244 bdbd 7283 5f3d 2af3 5e3d
00000220: 7a84 7abd 9683 293d 3dbf d13d 1aaf bc3d
00000230: 3ea3 04bd d4cf 3dbd 68bd 903d e453 b53a
00000240: 1a38 7abd b0e2 46bc 82f5 423d 8e6b 033d
00000250: 1ce0 e93c f88a 493c 1411 ddbc 8972 c03d
00000260: b6ff 5e3d d59c a7bd b56c c63d 79bd 193c
00000270: 8ed5 9f3d bc9c ad3d 3c72 c9bd dd58 803d
00000280: 3472 823c 7633 1cbd 783b ab3d d2fd 793d
00000290: 1e24 7c3d a013 c83c b4a9 e9bc 6d3f a6bd
000002a0: 25f2 9e3d cfb3 d3bc 90a5 cabd e1d4 093d
000002b0: e530 30bc 28e8 c2bd fc26 0d3d 536a 01bb
000002c0: 5003 933c f4b0 26bd 1c2e 62ba 8228 d03b
000002d0: 6cae bcbd a4e4 80bd 3ac6 183d b2d3 a7bd
000002e0: c67d 0cbd b3cc 5fbd 18d0 2ebc 7e30 013d
000002f0: 52d2 483d 506d 953b 60b5 cc3b 7109 4c3d
00000300: 7ba2 bd3d 39e7 6fbd 4719 d5bd 00b0 e5bb
00000310: b0d4 5ebc a1c6 ca3d 4c42 9e3d df39 05bd
00000320: 400d 0a3d 7dd1 d53b 5a90 b5bd 4cce 943d
00000330: 3340 563c a1b3 6cbd ca07 95bd 6406 fbbc
00000340: b7e0 f4bc bde4 d13d 8754 c23d add1 cebd
00000350: 29be 533d 678c 9d3b a847 d03c 96c9 c7bd
00000360: 5cb0 9c3c 8567 013d 00eb 83bd ada8 063d
00000370: d5ec 63bd efdb c6bd 2a9b a9bc fd7d 723d
00000380: 0d82 1d3d c1f4 9a3d 61e6 c63c ceb7 9bbd
00000390: 85aa bf3d 343a f83c a7ad 523d b4a4 65bc
000003a0: 3c55 cb3c e0c4 dd3c b3af 75bd 154d b2bd
000003b0: 8f0c 533d d356 ba3d 9cd5 85bd a213 533d
000003c0: 6450 f43c dc30 823c 14fe 16bd e4b1 91bc
000003d0: 395a b73c dbca cfbb 981c e3bc 4184 043d
000003e0: 55a3 37bd 41b7 1abc 9521 d2bd d293 423d
000003f0: 5781 91bd cf6d 71bd b3b4 113d 8c3c a8bc
0.022094758 0.083028354 -0.08103286 -0.0066992566 0.003822565 -0.0385098 -0.006019026 -0.10610993
0.09562368 -0.067371644 -0.05739501 0.10181009 -0.01945772 0.035976462 -0.043667253 -0.028007004
0.034538187 0.09299268 -0.050171934 -0.09498569 0.051210362 0.07536659 -0.030339528 -0.087898985
-0.082232274 0.07171468 0.0480259 -0.015556871 0.033221498 -0.055916596 0.025235364 -0.03279561
-0.05327382 0.08692079 -0.105669305 -0.09703732 -0.008402672 -0.084150344 0.08374144 0.05504648
0.013794194 -0.014490142 -0.0155173 -0.00561668 0.01343374 -0.08909176 -0.0271571 0.023156853
0.025948592 0.0697929 -0.08495062 -0.023136351 -0.00061866606 -0.05471405 -0.07037035 -0.025177158
0.103231095 -0.06812248 -0.08215773 0.055193745 -0.028612202 0.018322539 -0.08985883 -0.072414115
-0.012427742 -0.0773005 0.05392448 -0.079924814 -0.0060026795 0.08180412 -0.053106375 0.067987315
0.021614842 0.004976235 -0.08189959 0.06914413 -0.06383647 0.06588171 0.030938452 0.023933219
0.07772641 -0.004747352 0.10313898 0.07947412 0.07021684 0.033496656 -0.059583835 0.03953184
-0.029670846 0.046116985 0.04100523 -0.10403059 0.024265168 0.023488935 -0.0538851 0.1034733
-0.022819512 0.011227161 0.078621455 0.015035304 -0.0049249977 -0.07666032 0.093914025 0.07748283
0.09662048 -0.03898575 -0.07230522 0.08202997 -0.092558526 -0.07285096 0.014011867 0.07781682
-0.054876912 -0.08675454 -0.08957326 0.01709786 -0.08750421 -0.010604121 -0.019850023 -0.046322607
0.06282746 -0.0322819 0.07017033 -0.043959223 -0.0826208 0.058124382 -0.058431692 0.037931684
0.041534133 -0.07272073 -0.013983138 -0.042199984 0.0023311402 -0.09241499 0.054568715 0.054431118
-0.061161496 0.041385256 0.10241554 0.092130855 -0.032382242 -0.04634078 0.070673764 0.0013834205
-0.06108866 -0.012139007 0.047597416 0.032084994 0.028549246 0.012301199 -0.026985683 0.09396846
0.054443084 -0.0818421 0.09688703 0.009383553 0.07804404 0.0847716 -0.098362416 0.06266949
0.015923597 -0.038135014 0.08360952 0.061033078 0.06155788 0.02442342 -0.028523304 -0.08117566
0.07761029 -0.025842575 -0.0989486 0.033650283 -0.010753845 -0.095169365 0.034461007 -0.0019747212
0.017945915 -0.0406961 -0.00086280867 0.006352485 -0.09212956 -0.0629361 0.03729842 -0.081946746
-0.034299634 -0.054638576 -0.010669731 0.031540386 0.049028702 0.00456015 0.0062472075 0.04981369
0.09259506 -0.05857012 -0.10405212 -0.007009506 -0.013600513 0.09901167 0.07727489 -0.032525893
0.033704042 0.006525217 -0.088654235 0.072659105 0.01307683 -0.057788495 -0.07276876 -0.030642696
-0.029892309 0.102487065 0.094887786 -0.10098586 0.051695023 0.004807997 0.025424793 -0.09755246
0.019127063 0.031592865 -0.06441307 0.032875706 -0.055645783 -0.09709918 -0.02070387 0.059202183
0.038454104 0.07566214 0.024279775 -0.07603417 0.09358696 0.03030119 0.05143514 -0.014016319
0.024820916 0.027071416 -0.059982013 -0.087061085 0.05152565 0.09098592 -0.065348834 0.051532395
0.02982349 0.015892439 -0.0368634 -0.01778502 0.022381889 -0.006341321 -0.027723595 0.03235269
-0.0448335 -0.009443105 -0.102603115 0.047504254 -0.07104748 -0.058942612 0.03557272 -0.020536683

embedding.bias f4 [64]
00000000: 314e f23b 792c 733d d322 30bd 1164 c53d
00000010: 90d1 fa3c 3ad3 8ebd 4521 afbd 964f c1bd
00000020: 36dd 4cbd c09c 803c 2ea5 283d aa30 71bd
00000030: d5e4 cd3d e375 eabb f417 afbd ee3f 593d
00000040: 606c b73d ed84 da3c 74f4 8e3c 2cc5 a8bd
00000050: a87d d8bc 6661 2ebd fbee 45bd e19d b33d
00000060: c8a3 bebc bff5 453d be2e a93d 1791 cfbd
00000070: f14d 20bb 4270 8abd 765a 81bc 6176 4d3d
00000080: ff3f 30bd de26 bfbc 0b40 203d 54ff d33b
00000090: e0d8 e83c 4094 5fbc 2823 aebc 9278 a53d
000000a0: a12d 413d aa16 803d e2b6 a63d 7b7f 973c
000000b0: 17f3 543c aaef 47bc 8d71 43bd 786e c1bc
000000c0: 2739 973d c7c3 a9ba 4777 bd3d 2299 6abd
000000d0: ec83 3fbc 94ec 94bc f7cc f5bb 3113 60bd
000000e0: 021c a8bb 28f7 e3bb 57be b1bd f933 573d
000000f0: 50a3 233d 6914 5ebd df4b 8fbd cab1 7cbd
0.007394575 0.059368584 -0.04300196 0.09638227 0.030617505 -0.06973882 -0.085512675 -0.09439008
-0.05001565 0.015699744 0.041173153 -0.0588843 0.10053412 -0.0071551665 -0.085494906 0.053039484
0.08956218 0.026674712 0.017450549 -0.082407326 -0.026427105 -0.042573355 -0.048323613 0.087703474
-0.023271456 0.048330065 0.082608685 -0.101350956 -0.002446052 -0.06759693 -0.015790205 0.050161723
-0.04302978 -0.023333963 0.039123576 0.0064696465 0.028423727 -0.013646185 -0.021256998 0.080796376
0.047162656 0.06254323 0.08140351 0.018493405 0.01299741 -0.012203136 -0.047715712 -0.023612246
0.07383948 -0.0012952023 0.09251266 -0.057274945 -0.0116891675 -0.018179215 -0.0075012404 -0.054705802
-0.005130292 -0.0069569536 -0.086788826 0.0525398 0.03995067 -0.054218683 -0.06996893 -0.06169299

convs.0.fc_full.weight f4 [128, 169]
00000000: 58e3 9dbd 6c95 a83a 78c4 f2bc c182 55bd
00000010: 9d48 933d c5d4 203d 248b 90bd b6c6 583d
00000020: 9d5e 583d 088c 743d 978a 823d 78e9 70bc
00000030: 78c5 f0bc 3730 a13d fed3 77bc 0735 013d
00000040: cb02 753d 4259 9c3d f913 89bd d490 3f3a
00000050: 6514 17bc 988b 563d abbc d73c 18fa 85bd
00000060: fd91 053d b072 08bc 2764 d5bc 867d 5abd
00000070: 8692 a6bc f26a 04bd 456b b3bb 7579 1bbd
00000080: fb9c 6c3d 343d 58bd f074 f13b c458 1ebd
00000090: c705 353d f503 e03c 85c1 7fbd e594 95bd
000000a0: 0e4f 8a3d 258d 6bbd 1503 8f3d ec65 2e3d
000000b0: af42 783d f308 ae3c 2bee 51bd e575 0fbd
000000c0: b611 c6bc 04be 9c3d f0f0 1d3c 4ebd 24bb
000000d0: 1959 e03c 0fbe 7f3c dfbd 70bc 6b86 bdbc
000000e0: d5c7 1bbd d657 753d 7b09 f03c 400a 453d
000000f0: 65a4 45bd bb80 61bc e726 8d3d ce03 7ebd
00000100: c559 3d3d c7e1 56bd f110 473d 63ea 45bd
00000110: 9b5d 1abd 6918 9bbd 7887 2f3d 941f 1bbd
00000120: 1c88 35bd 44ec 8e3d 7a85 593d efc4 7c3d
00000130: a485 bebc 1ca5 f23c 05c4 89bd b4ce bebc
00000140: 2c2a 1c3c 4ddd 95bb 5c85 44bd 8b06 5c3d
00000150: af7e 4dbd b03b 9ebd 6dea 94bc b782 7fbd
00000160: 92fb 1bbd 9d02 293d af1f 0a3c e4f4 723c
00000170: e96f 07bc fbfc 54bd 584b 0d3d ed3e 83bd
00000180: fea7 02bd f5e9 a6bc 20dd 7c3d f230 78bd
00000190: 98ec 0d3d 1ca2 403d a24a b03c 58c5 b03b
000001a0: 90bd 4d3d 0947 0a3d dde7 053d 07ab d33c
000001b0: 45c4 fb3c 897c 87bc 797e 2e3c 8b41 c1bc
000001c0: 8d4d 393d 69ec 5b3d 60e8 563c 132f 44bd
000001d0: 5d55 363d 7008 c53c 14d4 99bd f0b8 17bd
000001e0: deaf 74bc 55c3 a33c 63a4 86ba 59da b6bb
000001f0: 23b7 4bbd 41cc 893d 6fac 9abc 2b4d 1bbd
00000200: 912d 20bd f3c5 86bb e8b0 1d3c dc4f 34bd
00000210: 2a88 3b3d 1ef3 35bc 13aa 253b ca29 c4bc
00000220: e857 813c 4b25 a53c 6e71 55bd e473 8dbd
00000230: e318 053c 9f25 873c f823 86bd 6d92 943d
00000240: 800b 153d 44f6 223d c9b3 9d3c 566c 27bd
00000250: 4589 963d 851f 253d fa52 29bd 095c 673d
00000260: 0fb4 22bd 955d 363d dd86 ed3c a537 3c3d
00000270: 2a33 6cbd 2847 793d 79cf ecba ca9e 553d
00000280: 06be 793d 6faa 8dbd b4a3 42bd 80d3 b8bc
00000290: 5514 90bd 0d70 72bd d043 0a3d 470a 913d
000002a0: 7401 68bd 801d db3a ece8 7a3d 7b0f 063c
000002b0: 0689 1a3d da96 b53c 9ef7 b83b cea1 43bd
000002c0: 3416 75bd 67fa 2fbd 6f31 aebc aa49 d63c
000002d0: 1e0d 673d 3a29 31bd 9150 3dbd 5621 84bb
000002e0: f633 053d a0b7 84bd 66b0 aabb c82f 54bd
000002f0: b388 933d dc7b 05bb 1650 f7bc 7dc5 ffbb
00000300: 8f91 103d 795c 4e3c ab06 1abd 15e8 1fbd
00000310: 1be4 833d d337 77bd e88f 7f3d 331c 7f3d
00000320: d2d6 14bd c8fe 903d 9586 17bd 60ad 48bc
00000330: e88c 7f3d 64b7 37bd 9490 033d c699 0fbd
00000340: ca0d 053c e3a0 3abc 64d6 9abc b7ea 943d
00000350: ee48 6ebc 81cf 4ebd c71f 533d 3d10 743d
00000360: e0e4 34bd c525 a03b a547 cb3c b2a9 0cbd
00000370: d98a 7abc 54ca 8b3b 01b7 76bd 6a0b 853d
00000380: acab 603d 0110 5b3d 94d7 653c cb4b d7bc
00000390: 6f5f b9bc 0fbf 343d 7377 b13c 3afb 853d
000003a0: d2c6 4dbd 9321 b9bc ae99 80bd f801 843d
000003b0: f6c7 8a3d 4419 043d f4b7 7abd 3f45 5fbd
000003c0: b25b 203d 5188 0dbd 2851 53bd d72a 943c
000003d0: 586c c3b9 5cf8 0dbc cfdd 15bc 8878 533d
000003e0: 4736 34bd e653 053c 527d 843d b3e9 8fbd
000003f0: 0f61 ec3c aa1f 43bd f0cd 543c 77f4 60bc
-0.07709378 0.0012861914 -0.0296347 -0.05212665 0.07191584 0.039265413 -0.07057789 0.05292388
0.052824605 0.059703857 0.0637409 -0.014704101 -0.029391035 0.078705244 -0.0151262265 0.03154471
0.059817117 0.07634212 -0.066932626 0.0007307653 -0.009221171 0.05237922 0.026335081 -0.06541842
0.03260993 -0.008328125 -0.026048733 -0.053342365 -0.02033354 -0.032328553 -0.005475434 -0.037957627
0.057766896 -0.052792743 0.0073686764 -0.038658872 0.044194963 0.027345637 -0.062440414 -0.0730379
0.0675336 -0.057507653 0.0698301 0.04257767 0.06061047 0.021244502 -0.051252525 -0.035024542
-0.024178367 0.0765343 0.0096399635 -0.0025137248 0.027386235 0.015609278 -0.014693706 -0.023135385
-0.03803237 0.05989822 0.029301396 0.04810548 -0.048252482 -0.013763602 0.06892186 -0.062015347
0.04622819 -0.05246141 0.04860014 -0.04831923 -0.037686925 -0.07573015 0.042853802 -0.037871912
-0.044319257 0.06978658 0.05310581 0.061711248 -0.023257084 0.029619746 -0.06726841 -0.023291923
0.009531539 -0.0045735002 -0.047978744 0.053717177 -0.050169643 -0.07726228 -0.01817819 -0.06238052
-0.038081713 0.041262258 0.0084304055 0.014828894 -0.008266428 -0.051999073 0.03449568 -0.064084865
-0.03189849 -0.020375231 0.06173432 -0.060593553 0.03464946 0.0470296 0.021519963 0.005394619
0.05022961 0.03375915 0.032691825 0.025838388 0.030733237 -0.016538875 0.010650271 -0.023590824
0.045239974 0.053692255 0.013116926 -0.047896456 0.044515003 0.024051875 -0.07511154 -0.037041605
-0.014934508 0.019990603 -0.001027238 -0.0055802283 -0.0497352 0.067284115 -0.01888105 -0.03791539
-0.039105956 -0.004112953 0.009624697 -0.044021472 0.045784153 -0.011105327 0.0025278374 -0.023945708
0.015788987 0.020159384 -0.052110128 -0.0690687 0.008123609 0.016497431 -0.06549829 0.07254491
0.03638792 0.03978564 0.019250767 -0.0408748 0.07350401 0.040313262 -0.0413389 0.056484256
-0.0397225 0.04452284 0.028994972 0.045951504 -0.05766598 0.060858876 -0.0018067203 0.052153386
0.060972236 -0.06917273 -0.0475194 -0.022561789 -0.07035128 -0.05918889 0.033756077 0.070820384
-0.05664201 0.0016717166 0.061257288 0.008182402 0.037728332 0.022166658 0.0056447526 -0.04776173
-0.059835628 -0.04296341 -0.021263806 0.026158173 0.056408994 -0.043252207 -0.046219412 -0.0040322943
0.032520257 -0.06480336 -0.0052090166 -0.05180338 0.07203808 -0.0020368015 -0.030189555 -0.007805525
0.035295065 0.012595289 -0.037604015 -0.03903969 0.06439992 -0.060355972 0.0623931 0.062282752
-0.03633768 0.07079846 -0.03699358 -0.012248367 0.062390238 -0.04485263 0.032120302 -0.03505876
0.008120963 -0.011390897 -0.018901058 0.07271331 -0.014543755 -0.05049086 0.051543977 0.0595858
-0.044163585 0.004887315 0.024814436 -0.03434152 -0.015291893 0.0042660628 -0.06023312 0.06496318
0.05485122 0.05348206 0.014028449 -0.026281258 -0.022628514 0.04412752 0.021663403 0.06542058
-0.050238438 -0.022599017 -0.06279312 0.06445688 0.06776421 0.032250658 -0.061210588 -0.054509398
0.039149947 -0.03455383 -0.05159107 0.018086834 -0.0003727402 -0.0086651705 -0.009147122 0.05162862
-0.043997075 0.008137679 0.064692155 -0.070269965 0.028854875 -0.04763762 0.012988552 -0.01373016

convs.0.fc_full.bias f4 [128]
00000000: 3a9d c03c 4e1c 8a3d 0673 5fbd d73f 8d3d
00000010: cbf0 89bd b54b a93c cde3 953c b5ed e73c
00000020: 9d14 943d 3951 803d 23e6 3cbd f37f 88bd
00000030: 957e ce3c de05 18bd 8083 5fbd f616 ebbc
00000040: 5abd 943c 0f56 9cbb 53e2 2f3d fba3 bbbb
00000050: fe30 213d fc9c e63c eba0 a13c f145 3ebd
00000060: 23d9 8a3d ce0f 9abc b161 95bc 968b 333c
00000070: 42b4 87bd d06c a8bc 3e04 833d 0f18 53bd
00000080: 00e5 dfbb 8fb6 bd3c 7b1b 933d 8667 03bd
00000090: 56a6 493d 2e6b 8c3c 2b3f 75bd 7c2c ab3c
000000a0: 0895 ac3c 942f 26bd 6b30 023d a53b 5cbc
000000b0: f561 8abd 52e4 993d b21d 363d 4570 4a3d
000000c0: 6169 2c3d 71a9 42bc badb 6c3d b66b 3cbc
000000d0: 16bf 89bd 522f 78bd bce7 fbbc 64bb 783c
000000e0: 202c 8e3c b0a4 3bbc 5888 b0bb 421b f23c
000000f0: 75ce c53c 8c6a 7a3d d478 36bd a924 41bd
00000100: c5bc c3bb 4072 c7bc 0573 573d 5a10 4e3d
00000110: 0fff 98bd ad7c 4fbd 7a20 083b 7b04 353d
00000120: 0cc0 933d 1f33 643d 0ccd 563c 4602 81bc
00000130: 2eed 13bd 8ca3 d23c 6092 663d 837f cabc
00000140: 29a3 7ebd 2502 633b acb2 1f3c d082 f33c
00000150: 4a0a 25bd 0da0 36ba 02f8 91bd 7b69 2d3d
00000160: 39e5 073b 722d eb3b 98a4 10bd a4aa 43bd
00000170: a793 913d a3b5 d13c b5dd 8bbc ff0d 6dbc
00000180: 4589 32bd 1116 f0bc 9c3a 3cbd 347a 3cbd
00000190: b99d ea3c 81b7 46bd 00c3 dd3b 753d e4bb
000001a0: e111 f4ba 34f9 97bd 6593 29bb cdec 253d
000001b0: a9c5 27bc 6ea1 683d cad6 cb3b e23b ee3c
000001c0: 505a 963d 547d 393d 5eeb 223d 163c a0bc
000001d0: dacc 353c 5763 373d 19e0 8b3d cd59 85bd
000001e0: fa0a ea3b a3ae 27bd 2ae3 513d eee9 18bd
000001f0: 4f5a a33a 83c1 42bd 14e6 a13c 1e8f 82bc
0.023512471 0.0674368 -0.054553054 0.06896942 -0.06735381 0.020665983 0.0182971 0.02831159
0.07230494 0.06265492 -0.046117913 -0.066650294 0.025206843 -0.03711497 -0.054568768 -0.028697472
0.018156696 -0.004771001 0.04294045 -0.005726335 0.039353363 0.028151028 0.019730052 -0.04645342
0.06779697 -0.018806364 -0.01823506 0.010958573 -0.06626178 -0.020559698 0.063972935 -0.051536616
-0.006832719 0.02315834 0.07182976 -0.03208115 0.049230896 0.017140951 -0.059874695 0.020895235
0.021067157 -0.040572718 0.031784456 -0.013441955 -0.06756965 0.07514252 0.044461913 0.049423475
0.042092685 -0.011881218 0.057826735 -0.01150029 -0.067259 -0.060592003 -0.030750148 0.015181396
0.017355025 -0.011452839 -0.005387347 0.029554013 0.024146298 0.061136767 -0.044548824 -0.047154102
-0.005973431 -0.02434647 0.052599926 0.050308563 -0.074705236 -0.05065601 0.002077131 0.044193726
0.072143644 0.055712815 0.01311041 -0.015748154 -0.036114864 0.02571275 0.056291938 -0.024719005
-0.06216732 0.003463873 0.009747189 0.029725462 -0.040293016 -0.00069665984 -0.07127382 0.042336922
0.0020735993 0.0071770484 -0.03531322 -0.047770157 0.071082406 0.025599306 -0.017073492 -0.014468669
-0.04358794 -0.029307397 -0.04595433 -0.04601498 0.028639661 -0.048514847 0.0067676306 -0.006965334
-0.0018621051 -0.074205786 -0.0025875208 0.040509034 -0.010239997 0.056794576 0.006220673 0.029081289
0.073414445 0.045285538 0.039775245 -0.019559901 0.011096204 0.044772472 0.068298526 -0.06511269
0.007142422 -0.04093803 0.05124203 -0.037332468 0.0012462827 -0.04754783 0.01976303 -0.015937384

convs.0.bn1.weight f4 [128]
00000000: 9a08 803f d1ed 7f3f ccf9 7f3f 3f0a 803f
00000010: baaf 7f3f a7d9 7f3f 37f6 7f3f c325 803f
00000020: 8b11 803f 11e9 7f3f 22b0 7f3f eb08 803f
00000030: 5136 803f 04ea 7f3f 7cfa 7f3f a1d8 7f3f
00000040: ce00 803f f80f 803f 31c3 7f3f 0ce9 7f3f
00000050: 221d 803f 73fb 7f3f af0e 803f acf0 7f3f
00000060: 772a 803f 20a7 7f3f 2260 7f3f 71ec 7f3f
00000070: 46d7 7f3f c6ef 7f3f aa09 803f 1305 803f
00000080: e51a 803f 5184 7f3f 19fa 7f3f 07f2 7f3f
00000090: fd6c 803f ee14 803f 65ec 7f3f d801 803f
000000a0: deef 7f3f a604 803f 3c21 803f 9208 803f
000000b0: 249d 7f3f c1e7 7f3f da1b 803f 1f13 803f
000000c0: 48a2 7f3f bcfd 7f3f 2df9 7f3f ae43 7f3f
000000d0: d862 803f 7a00 803f 91fc 7f3f bf0e 803f
000000e0: 9a0a 803f 5d08 803f 50fe 7f3f 7ddf 7f3f
000000f0: d2bc 7f3f 110b 803f 9205 803f 6c10 803f
00000100: bfe5 7f3f 7c25 803f 59f5 7f3f ab0a 803f
00000110: fd16 803f 4009 803f c810 803f 25ba 7f3f
00000120: b6bc 7f3f 81fd 7f3f b51a 803f 43d7 7f3f
00000130: 62a0 7f3f 5f0c 803f 7ef2 7f3f 491d 803f
00000140: 5512 803f 0abf 7f3f 1016 803f c8e6 7f3f
00000150: b988 7f3f 2702 803f 6dc3 7f3f 130a 803f
00000160: d096 7f3f f825 803f f13b 803f 9a18 803f
00000170: 53ce 7f3f 4a08 803f 63f2 7f3f 26e0 7f3f
00000180: 69c9 7f3f 392e 803f af01 803f 83f2 7f3f
00000190: c647 7f3f dedc 7f3f c41b 803f a4df 7f3f
000001a0: 7115 803f 39e9 7f3f 828f 7f3f 2ad5 7f3f
000001b0: 6a23 803f d921 803f 30aa 7f3f 0e08 803f
000001c0: 561b 803f 92f0 7f3f 5d27 803f c742 803f
000001d0: 2512 803f 73fe 7f3f 3802 803f 16df 7f3f
000001e0: 6810 803f a7e1 7f3f 41ff 7f3f 9213 803f
000001f0: 1b2b 803f dbec 7f3f cbf5 7f3f b5e5 7f3f
1.0002625 0.99972254 0.99990535 1.0003127 0.9987751 0.99941486 0.9998507 1.0011524
1.0005354 0.99965006 0.9987813 1.0002722 1.0016576 0.99966455 0.99991584 0.99939924
1.0000246 1.0004873 0.99907213 0.99964976 1.0008891 0.99993056 1.0004481 0.9997661
1.0012959 0.9986439 0.9975606 0.99970156 0.99937856 0.9997524 1.0002949 1.0001549
1.0008208 0.99811274 0.99990994 0.9997868 1.003326 1.0006387 0.99970084 1.0000563
0.99975383 1.0001419 1.0010142 1.0002615 0.9984915 0.99963003 1.00085 1.0005835
0.99856997 0.9999654 0.9998959 0.99712646 1.0030165 1.0000145 0.9999476 1.00045
1.0003235 1.0002552 0.99997425 0.9995039 0.9989749 1.0003377 1.00017 1.0005012
0.9995994 1.0011439 0.99983746 1.0003256 1.0007015 1.0002823 1.0005121 0.9989341
0.99897325 0.9999619 1.000815 0.9993784 0.998541 1.0003775 0.9997939 1.0008937
1.0005594 0.9990088 1.0006733 0.9996152 0.99818 1.0000657 0.9990757 1.0003074
0.99839497 1.0011587 1.0018293 1.0007508 0.999242 1.000253 0.9997923 0.999514
0.999167 1.0014106 1.0000514 0.9997942 0.9971889 0.9994639 1.0008473 0.99950624
1.0006543 0.99965245 0.9982835 0.9993464 1.0010808 1.001033 0.9986906 1.0002458
1.0008342 0.99976456 1.0012013 1.0020379 1.0005537 0.99997634 1.0000677 0.9994978
1.0005007 0.99953693 0.9999886 1.0005972 1.0013155 0.9997079 0.99984425 0.9995988

convs.0.bn1.bias f4 [128]
00000000: dc65 98b7 7bb3 ca39 a2b8 7c38 e0c3 8ab6
00000010: 0cb0 ab39 7f10 093a feda 0339 18a5 37ba
00000020: 724a 68b8 40f6 93b4 4d3a e038 f9c9 a738
00000030: 0f4e 09ba 56b5 c639 49f6 b038 ddf3 d039
00000040: 96b0 f439 e44b e9b8 4a9d 8d39 712b 2739
00000050: c43b d9b9 e577 a6b9 e310 c3b8 8b53 8538
00000060: 024b 44ba 7aae 8d3a 50f0 c33a b63c c736
00000070: 98de 573a 4bf8 113a 1f10 81b9 38d8 e6b8
00000080: 79b5 13ba 07ba 313a 5639 39b7 f5f5 133a
00000090: 2854 baba 30f9 ecb9 76ed 253a 264a a839
000000a0: 1995 ba39 76ce 08ba e04b 16ba 497b 9ab8
000000b0: 1cfe 273a aec7 343a 638a 11ba 3ef8 dcb9
000000c0: 8628 193a 2cf2 f0b6 452c 0a3a f20d e23a
000000d0: aed4 c5ba a55b 4a38 0c2d 3638 38a5 5bb9
000000e0: 7b46 e8b7 bca9 efb8 bc0b 0239 78cb 103a
000000f0: e4ac 843a 0efa 0cba e073 b238 90d2 50ba
00000100: 70aa 4c39 58d5 05ba d709 ccb8 18e0 2839
00000110: 4e51 18b9 7f99 07b9 41fb 21b9 8667 b339
00000120: e151 053a cb8d 7eb9 52f9 ffb9 24a2 9b39
00000130: d7d3 0d3a 0c89 17b9 a184 e738 e11f 95b9
00000140: 5261 4eb9 7254 013a aa70 9bb9 a5b6 4339
00000150: 018c 6a3a 11ca a637 8bf0 6439 2b1a d4b8
00000160: f027 3a3a eafd bbb9 d563 2bba 9191 2bb9
00000170: 7720 0f3a 5a49 62b8 c916 1639 37aa 0a39
00000180: beb5 4639 5105 94b9 c242 7fb7 a23d c338
00000190: 9c4f 7f3a d648 5739 e3f5 f9b8 9a91 8a39
000001a0: 932d 9ab9 f921 e438 2129 0d3a 0693 8939
000001b0: 0eff b9b9 ffc4 d2b9 a1be 093a c052 05b9
000001c0: 7716 aeb9 aac8 fc38 4875 21ba 61e1 04ba
000001d0: 5278 8cba 085c 9138 14db c135 ad1e 6239
000001e0: 4d3f 4ab9 1be1 0239 9bc4 7db8 c10e 20b9
000001f0: e7dd 66b9 94ba 9338 a87d 9f38 dcfc 6739
-1.8167244e-05 0.00038662166 6.0253435e-05 -4.1355233e-06 0.00032746827 0.00052285934 0.00012574714 -0.0007005497
-5.5382443e-05 -2.7560054e-07 0.00010692012 8.000801e-05 -0.0005237767 0.0003790061 8.438208e-05 0.00039854544
0.00046670873 -0.000111244415 0.00027010805 0.00015942544 -0.00041433994 -0.00031751316 -9.30147e-05 6.357495e-05
-0.00074879837 0.0010809444 0.0014948938 5.93773e-06 0.0008234768 0.00055683096 -0.00024616809 -0.000110075285
-0.00056346465 0.00067797344 -1.1040209e-05 0.00056442554 -0.0014215754 -0.00045199087 0.0006329635 0.00032098702
0.0003558777 -0.00052187534 -0.0005733352 -7.366256e-05 0.00064084097 0.00068962097 -0.0005551932 -0.00042146625
0.0005842525 -7.18075e-06 0.0005270879 0.0017246588 -0.0015093291 4.8245904e-05 4.3434135e-05 -0.00020947016
-2.7689375e-05 -0.000114280236 0.00012402138 0.0005523483 0.0010122326 -0.0005377837 8.509285e-05 -0.00079659466
0.00019518449 -0.0005105338 -9.729311e-05 0.0001610521 -0.00014526138 -0.00012931785 -0.00015447756 0.00034218671
0.0005085748 -0.0002427615 -0.00048823148 0.00029684708 0.000541029 -0.00014451536 0.000110396424 -0.00028443246
-0.00019681946 0.0004933543 -0.00029647845 0.0001866469 0.0008947254 1.9882837e-05 0.00021833384 -0.00010113822
0.0007101288 -0.000358566 -0.00065380085 -0.00016362059 0.0005459855 -5.3950913e-05 0.00014313603 0.00013224116
0.00018950456 -0.0002823272 -1.5214728e-05 9.3098046e-05 0.0009739341 0.00020531131 -0.00011919045 0.00026429893
-0.00029407124 0.00010878215 0.0005384852 0.00026240217 -0.0003547598 -0.00040201095 0.0005254541 -0.00012714695
-0.00033204604 0.00012053673 -0.0006159139 -0.00050689845 -0.0010717011 6.931281e-05 1.4443381e-06 0.00021564467
-0.00019287803 0.00012481624 -6.0503004e-05 -0.00015264285 -0.00022017174 7.044259e-05 7.605116e-05 0.00022124074

convs.0.bn1.running_mean f4 [128]
00000000: 1308 9f3c 3e4b 503d 4f5b f63c b412 403d
00000010: 2e34 14be 33a5 a1bb f850 eb3d 3ee2 c4bc
00000020: 3c83 283e 00bf d03d f023 13be 55c8 4abc
00000030: 58bb 2d3d 34ea 9e3d 8656 74bd f41f 06bd
00000040: cacb 6b3d e213 c2bd d329 f7bb fa58 9cbd
00000050: 2ca9 593d fd99 83bd b52f 713d 670e 3e3c
00000060: fbe3 893d cbf6 48bd 8450 af3b 2408 bf3d
00000070: feb9 0cbd 10ca d93d 22dd a43d 87ca 343d
00000080: 80ff 20bd 66dc a2bc b40e e63d 56f8 e1bc
00000090: 63ed bb3d 5c88 923d d846 18be 6a98 c3bd
000000a0: 61c7 ee3d a9dd 0fbe 76cf ca3a fb24 a93d
000000b0: db60 24bd ea18 7a3d cee2 a03d 7619 a03d
000000c0: 80dd c4b8 6a7c ebbd 721a 573d f4f5 1cbe
000000d0: f65e 26bc e21b 9bbd 5b37 133d cfc5 37bd
000000e0: badd 323c c302 eebc d025 e73c b1b8 163e
000000f0: 2ba9 a6bd 1ece a03d a0b4 63bd 006c 3bbd
00000100: 90fb bcbd 5bfb adbd 72df a73d 8596 3bbd
00000110: e9fa a3bd 4545 ddbd 3265 243d c296 b43d
00000120: 9855 b63d 4faf 2a3e 5bd9 c8bc a645 3bbd
00000130: e91d e3bd 7a5d 363d 6587 203d 5fa5 abbc
00000140: c182 013c 1133 a33d 3ec2 683d 7fdb c4bc
00000150: 6d6d bf3c 60c0 513d a00f d63b 1328 18bd
00000160: 491c 8cbd 2b65 78bd c82f de3d caee 90bc
00000170: b583 f6bd b662 93bd 9951 6f3c c75b aa3d
00000180: dde4 bbbd 0263 02bd ef6d c4bd 90ef fbbc
00000190: a6b7 a53c 8d5f 51bd 16eb 49be 23b4 b4bc
000001a0: 3638 363d fe5c c3bd db76 473d 0b73 523d
000001b0: 8c75 1bbb bb06 843d 827e 10bd 8299 3b3d
000001c0: d5ff 823c aa27 84bd ac22 97bc 0033 06be
000001d0: 32a5 1d3e f4dd 0f3e c7ca 303e c19e 8cbe
000001e0: bd0b ef3d 533e b2bd d4ea 0c3d 5cf2 4ebd
000001f0: 07e4 a53d 535d ddbd ac42 e73d f681 b2bd
0.01941303 0.050853007 0.030072836 0.046892837 -0.1447303 -0.0049330234 0.11490053 -0.024033662
0.16456312 0.1019268 -0.14369178 -0.012376864 0.042414993 0.077595145 -0.059652828 -0.032745317
0.057567395 -0.094764486 -0.0075428276 -0.076341584 0.05313985 -0.06425855 0.058883388 0.0116001135
0.06732937 -0.049063485 0.0053501744 0.093277246 -0.034357063 0.106342435 0.0804999 0.044138458
-0.039306164 -0.019880485 0.11233273 -0.027584236 0.09176137 0.07154915 -0.14870775 -0.09550555
0.11659122 -0.140494 0.0015473205 0.082590066 -0.04013143 0.061058916 0.078557596 0.07817356
-9.387266e-05 -0.114983395 0.052515455 -0.15328199 -0.010154476 -0.075736776 0.035941463 -0.04486638
0.010917122 -0.029054051 0.028216273 0.14718892 -0.08137735 0.07851814 -0.05559218 -0.045757294
-0.09227669 -0.08495208 0.08196916 -0.045797843 -0.08006842 -0.10804228 0.04013557 0.08817817
0.089030445 0.16668437 -0.024517706 -0.04572072 -0.11089689 0.04452274 0.039191622 -0.020952879
0.007904709 0.079687245 0.05682587 -0.024030445 0.023367608 0.051208854 0.0065326244 -0.037147593
-0.068413325 -0.060643356 0.10848957 -0.017691988 -0.1203684 -0.07196562 0.014606857 0.083182864
-0.091745116 -0.031832702 -0.09591281 -0.03075388 0.020229172 -0.051116515 -0.19718584 -0.022058552
0.0444872 -0.09539221 0.048697334 0.051379245 -0.0023721186 0.06446596 -0.035276897 0.045800693
0.01599113 -0.06452878 -0.01844915 -0.13105392 0.15395048 0.14049512 0.17264853 -0.2746487
0.11672161 -0.08703294 0.034403637 -0.0505241 0.081001334 -0.10808816 0.112920135 -0.08716194

convs.0.bn1.running_var f4 [128]
00000000: 4ebd 313e 4e59 2d3e 9cd1 303e fbbe 333e
00000010: f3ec 353e 3402 2f3e 2ee7 2e3e 7b50 2f3e
00000020: 7ef2 303e 951c 353e 79e1 2e3e 344a 313e
00000030: e4d7 313e 1bc5 2f3e 89d4 323e d5b9 2f3e
00000040: aa98 2f3e 9489 353e 036b 333e 5dd9 2f3e
00000050: d481 303e 571e 353e ff82 2e3e 518a 2e3e
00000060: 3535 2f3e 4105 313e 3ffd 2f3e fb8c 333e
00000070: 3eb3 343e b59b 303e 78b7 2e3e 0f09 2f3e
00000080: 5d05 373e cc33 303e 628d 313e d887 303e
00000090: 45c8 323e 5b04 313e 1eaf 323e ae5b 343e
000000a0: a74f 353e 254f 323e ec75 2f3e 15b0 2d3e
000000b0: 280e 303e 1638 303e 320d 323e 4e57 333e
000000c0: 762b 303e 3805 2e3e 808d 2f3e bd9b 303e
000000d0: 6725 303e 88e1 2d3e bcec 2f3e 8024 323e
000000e0: 9107 343e d90a 303e b908 313e 10a2 313e
000000f0: 0370 2f3e 89b0 313e f1e7 2f3e a090 323e
00000100: 576c 383e d14c 313e b39f 2f3e c16a 2f3e
00000110: 27e0 2e3e d532 323e 9cbf 2f3e 62ab 343e
00000120: fd67 313e 183b 333e c9e9 303e c15a 343e
00000130: 95a7 313e 0345 353e e8ba 2e3e 7955 303e
00000140: 45fe 303e a4d9 2f3e 1855 303e 8bcf 2e3e
00000150: b308 383e 3e15 313e b273 303e bb9a 333e
00000160: b604 303e 6a7b 333e 7236 343e c8aa 2f3e
00000170: bbdc 2e3e e370 343e 0087 333e 7499 323e
00000180: baa1 2d3e 7266 343e e759 2f3e 0b9d 383e
00000190: 1284 2f3e 57e5 2f3e 50fd 303e 67c7 313e
000001a0: ce88 2e3e bdb7 2c3e 53d7 2f3e 1d2e 2e3e
000001b0: dd4e 323e 079b 303e 7b7d 313e 2b5b 313e
000001c0: 1fd8 343e 01cd 303e 2c8d 303e cfd2 333e
000001d0: 60ae 2d3e 5005 303e 48af 303e 8c2b 2f3e
000001e0: 4b26 2e3e 0430 313e 3575 343e b7cc 323e
000001f0: 3488 313e 876d 303e c59f 303e 74e4 2f3e
0.1735737 0.16928598 0.1726746 0.17553322 0.1776617 0.17090684 0.17080376 0.17120545
0.17280003 0.17686684 0.17078198 0.17313462 0.17367512 0.17165034 0.17463888 0.17160733
0.1714808 0.17728263 0.1752129 0.17172761 0.17237025 0.17687355 0.17042159 0.17044951
0.1711014 0.1728716 0.1718645 0.17534249 0.176465 0.17246898 0.17062175 0.170933
0.1787314 0.17207259 0.1733909 0.1723932 0.1745921 0.17286818 0.17449614 0.17613098
0.17706166 0.17413004 0.17134827 0.16961701 0.171929 0.17208895 0.17387846 0.17513773
0.17204079 0.16994178 0.17143822 0.1724691 0.17201768 0.16980565 0.17180151 0.17396736
0.17581011 0.17191638 0.17288484 0.17346978 0.17132573 0.17352499 0.17178322 0.17437983
0.18010078 0.1731446 0.17150764 0.17130567 0.17077695 0.17402203 0.17162937 0.17643502
0.17324825 0.17503011 0.17276682 0.17612745 0.17349084 0.17702107 0.17063487 0.17220105
0.17284496 0.17172867 0.1721996 0.17071359 0.17972068 0.1729326 0.17231634 0.17539494
0.17189297 0.17527547 0.17598894 0.17154992 0.1707639 0.17621188 0.17531967 0.1744135
0.16956225 0.17617205 0.17124139 0.18028657 0.17140225 0.1717733 0.17284131 0.17361222
0.17044374 0.16866966 0.17171983 0.17009778 0.17412896 0.17246638 0.17333023 0.17319934
0.17660569 0.17265703 0.17241353 0.17560886 0.1696105 0.17189527 0.17254364 0.17106456
0.17006795 0.17303473 0.17622836 0.17460905 0.17337114 0.17229281 0.17248447 0.17176992

convs.0.bn2.weight f4 [64]
00000000: 9a4c 7f3f 1f8a 803f 2e65 803f dd1d 7f3f
00000010: 4d90 7f3f 4fd6 7e3f 9fc4 7f3f 7b73 803f
00000020: 04d4 7f3f 422f 803f a27d 7f3f 09cb 7f3f
00000030: 309d 803f 4e81 7f3f 525a 7f3f cb0a 803f
00000040: 82f1 7f3f 442b 803f 9621 7f3f 4679 803f
00000050: d3f6 7f3f 152a 803f e1fc 7f3f 6017 803f
00000060: 5134 7f3f 037c 7f3f 2937 803f 365d 7f3f
00000070: 3521 7f3f 0b69 7f3f cb1b 803f 12da 7e3f
00000080: 77f3 7f3f ccee 7f3f c2f5 7f3f 8bca 7e3f
00000090: d554 7f3f 104d 803f a24e 803f 673c 7f3f
000000a0: b600 803f c94a 7f3f bd85 7f3f 325f 7f3f
000000b0: d31a 803f 2b59 803f 7505 803f 0337 803f
000000c0: f643 7f3f a9e1 7f3f 2568 7f3f 3537 803f
000000d0: a098 813f da62 7f3f 87f2 7f3f 1a91 7f3f
000000e0: de28 803f 2a7d 7f3f b40d 803f 4efb 7e3f
000000f0: e548 803f 8d53 803f fa06 803f 9b9c 7f3f
0.9972626 1.0042151 1.0030878 0.9965494 0.9982956 0.9954576 0.99909395 1.0035242
0.99932885 1.0014422 0.99801075 0.9991918 1.004797 0.9980668 0.9974719 1.0003294
0.99977887 1.0013204 0.99660623 1.003701 0.99986 1.0012842 0.9999524 1.0007133
0.99689204 0.997986 1.0016834 0.99751604 0.99660045 0.9976966 1.0008482 0.995515
0.9998087 0.9997375 0.9998437 0.99527806 0.9973882 1.0023518 1.0023997 0.9970154
1.0000217 0.9972349 0.99813443 0.9975463 1.0008186 1.0027212 1.0001665 1.0016788
0.99713075 0.99953705 0.99768287 1.0016848 1.0124702 0.9976021 0.9997944 0.9983078
1.0012472 0.9980036 1.0004182 0.9960221 1.0022246 1.0025498 1.0002129 0.99848336

convs.0.bn2.bias f4 [64]
00000000: b3a2 2cb9 b1b7 b03a 18ef 3f3a b75f 38ba
00000010: 3c05 3eba 1e61 e1ba ef7e acba 64f3 803a
00000020: 2c96 a8b9 1949 f639 fc9a 57ba 7fbc 0639
00000030: 8fe3 ff3a 7f3b 65ba 70a8 6dba 7db4 22ba
00000040: 42e9 cdb9 5e20 4c3a 2d24 ceb9 3d6f f73a
00000050: af8c ea3a e8b4 5f39 02b0 ddb9 afbd 023a
00000060: 48a1 8dba cb1d aaba 5af4 9739 9530 b9ba
00000070: 73e4 22ba 80df 1bba b208 a239 d519 fcba
00000080: f4a9 6fb8 46dd 12b7 0473 2eba 2edf acba
00000090: 5614 25ba 7755 133a df77 5b3a fbe7 35ba
000000a0: 475a cc39 8705 a3ba fd77 92ba 19cf d4b9
000000b0: 1751 f839 6dc1 493a e605 e539 9e5a 4839
000000c0: fe0b aaba b4e6 c43a f789 dfba 39db b43a
000000d0: 2e2a 98b8 da4a b039 fad1 08ba b67b 24ba
000000e0: bd3a 7b3a 1338 b9ba 6096 4738 c4c3 8bba
000000f0: 5db9 763a 3786 3b39 a714 033a 2caa 7fba
-0.00016463808 0.0013482479 0.00073216995 -0.00070333056 -0.0007248705 -0.0017195081 -0.0013160388 0.0009838161
-0.00032155344 0.00046975238 -0.00082246936 0.00012849456 0.0019522774 -0.00087445223 -0.00090659317 -0.00062067044
-0.00039274438 0.00077868055 -0.00039318335 0.0018877756 0.001789471 0.0002133433 -0.0004228354 0.00049873715
-0.0010805512 -0.001297885 0.0002898302 -0.0014128858 -0.0006213851 -0.0005946085 0.00030905526 -0.0019233773
-5.714032e-05 -8.753797e-06 -0.0006654712 -0.0013189071 -0.0006297281 0.000562034 0.0008372049 -0.000693917
0.00038977174 -0.001243756 -0.0011174675 -0.0004059009 0.00047362663 0.0007696364 0.00043682678 0.00019107244
-0.0012973545 0.0015022368 -0.0017054667 0.0013798244 -7.2557814e-05 0.00033625105 -0.0005219277 -0.0006274538
0.0009583643 -0.0014131091 4.7585345e-05 -0.0010663201 0.00094117766 0.00017883709 0.0005000331 -0.00097528356

convs.0.bn2.running_mean f4 [64]
00000000: fd8d 7240 0362 7d40 8562 8040 003a 8140
00000010: c21a 6140 5c46 8b40 34ef 9240 5a6c 8340
00000020: 8902 8c40 31e1 7840 c42a 8640 1d9c 8c40
00000030: f432 8040 09af 7a40 5049 8640 fdd5 8340
00000040: e44b 9040 bbca 9040 d898 8b40 eced 8540
00000050: ac27 8240 d224 9340 9d41 8040 f8d7 6940
00000060: e628 8d40 e6ec 8940 8aa1 8140 9d83 6840
00000070: 8651 9240 7aff 7540 ce5b 8940 7819 8f40
00000080: 11b8 9040 9d4d 5e40 5a97 7f40 0ccc 8c40
00000090: 4f28 8140 2cc0 6c40 cc9d 8540 1fb1 9540
000000a0: 14a2 7940 cf58 9140 037a 7c40 0070 8040
000000b0: 6a05 8240 434d 7c40 c2cf 8040 146e 6b40
000000c0: 5f86 8140 5d34 8840 ecc3 9240 0240 6840
000000d0: 52cd 6f40 6d22 8a40 f191 8540 7213 8840
000000e0: 93b3 8840 af5b 8640 19d7 8840 5c19 8040
000000f0: d45b 8040 c25e 9440 a2bf 8c40 989d 8040
3.7899163 3.9591072 4.0120263 4.03833 3.5172582 4.352339 4.5916996 4.1069765
4.3753095 3.8887446 4.1927204 4.394057 4.00622 3.9169333 4.1964493 4.1198716
4.509264 4.5247474 4.3624077 4.185293 4.0673428 4.5982447 4.0080094 3.6538067
4.4112425 4.3101683 4.050969 3.633033 4.5724516 3.843718 4.2924566 4.471859
4.522469 3.4734871 3.9936128 4.399908 4.0361705 3.6992292 4.1755123 4.677871
3.9005175 4.542091 3.944947 4.013672 4.063161 3.9422157 4.025361 3.6785936
4.0476527 4.256392 4.5864162 3.6289067 3.7469068 4.3167024 4.174065 4.2523737
4.2719207 4.198692 4.276257 4.0030956 4.0112095 4.636567 4.3983927 4.0192375

convs.0.bn2.running_var f4 [64]
00000000: 2352 7540 b7ac 1740 a2dd bc40 795a 8c40
00000010: 7e4b 1440 4560 1441 0b24 a940 0eca 0441
00000020: 5e47 3341 61f0 4540 6468 1541 b36c ec40
00000030: 6c22 8940 60dc 6440 97d5 e040 c9a8 7c40
00000040: 140d 8541 e34b 2141 7ca2 e140 80a6 9a40
00000050: 2528 b440 3ab2 eb40 74b5 a040 ba75 9040
00000060: 264a e240 a7de 2e41 0a99 3141 fbcd 9440
00000070: 3188 b840 dc63 e73f 7e46 c140 4f74 ec40
00000080: 9753 1841 aa95 5340 357e 2841 f510 af40
00000090: e7ab a440 257c fb3f 18ae dc40 c738 a241
000000a0: c52f 9e40 840a 3c41 e82c 8740 2b6c 6d40
000000b0: c3a9 9740 e348 0741 88e7 7940 cb50 a240
000000c0: ecb3 eb40 6907 2f41 67f7 b641 05fd 8040
000000d0: acd6 c240 8398 5941 a9ae 0e41 fcfa 4d41
000000e0: 8b07 bc40 93f5 cc40 a4b7 1441 a7ea 9440
000000f0: c07c 8f40 471a 7b41 8a5f 9341 9d8d ad40
3.8331382 2.3699167 5.902055 4.386044 2.3171077 9.273503 5.28565 8.29933
11.204924 3.0927966 9.337986 7.388269 4.285452 3.5759506 7.026073 3.9478018
16.631386 10.081027 7.0510845 4.8328247 5.6299005 7.365506 5.02215 4.514371
7.0715513 10.9293585 11.099863 4.650144 5.766625 1.807735 6.039855 7.389198
9.520408 3.3060098 10.530812 5.47082 5.145984 1.9647261 6.8962517 20.277723
4.9433312 11.752567 4.2242317 3.709727 4.739473 8.455295 3.9047565 5.0723624
7.365713 10.939309 22.870802 4.030886 6.088705 13.599734 8.917642 12.8737755
5.875921 6.4049773 9.294834 4.653644 4.4839783 15.693915 18.42165 5.423537

convs.1.fc_full.weight f4 [128, 169]
00000000: e5ef 8cbd 6450 47bd 2153 8cbd 7ed8 e8b8
00000010: 323d 3dbd e7d3 ddbb e7e2 cebc a222 92bd
00000020: e322 9ebd 3bed 4bbd f424 edbb bc40 6f3d
00000030: e607 8b3d 490f 02bc 3222 283d a33a 80bc
00000040: 80a1 30bd 906f 863d 5e01 5d3d 3eab 533b
00000050: 5832 9e3c 17c4 94bd 40ea a5ba 2030 6e3b
00000060: 9c84 9b3b 1157 6a3d 7a92 9abc 1a54 8fbd
00000070: aa69 473d 8403 c6bb 2025 9abd 6b68 84bd
00000080: 8b68 00bb 8389 4ebd d2d7 653c 6350 8a3b
00000090: c273 ab3b 33fd 7cbd d45f 9f3d b513 07bd
000000a0: aa45 753c c672 813d cbb9 75bd 2b54 8fbd
000000b0: a12c 5d3c e704 24bd e3b0 54bc fa06 dc3c
000000c0: ae7b 853d 984d ddbc 5eb3 7cbd 9478 35bd
000000d0: 9efa 2abd 776f 98bc b11e 6fbd 99cc 8ebc
000000e0: fcc8 7dbc 0437 7ebd 4b0d 503c 5efc 6bbd
000000f0: d471 1bbd ad9f bcbc 4b48 1bbc 4e13 18bd
00000100: 326f 343d 2995 01bb 66a1 253d 60f5 1e3d
00000110: 0c1e a0bd b786 60bc 960a 01bc 86ee 8bbd
00000120: d0d6 593d 6307 383d 46f6 c13c 92a4 933d
00000130: 4b22 83bd 6a49 9c3d 466b 19bd 75c2 5cbd
00000140: a231 8bbd 6875 9bbd 73ff 923d a91e c63c
00000150: 274e 153c d87e b93c 2206 95bd 714f 393d
00000160: 7eaf 203d e7aa 8bbd 75d0 1bbd f091 0f3d
00000170: 02b7 83bb 90a7 29bd ccea f2bb 8662 4a3d
00000180: a625 42bb b6c4 a1bc e75f 973b 27fd 823c
00000190: cd63 91bd f4d9 8b3d 6bfa a93c 96f3 a13c
000001a0: fdd3 54bd ef4b 4dbd e392 ec3c 4d9c ecbc
000001b0: c985 3fbd a84e 3ebd 688e 823d 96e0 3c3d
000001c0: caea 80bd 979c 103d 568b e3bc b580 54bd
000001d0: 7be5 8c3d 03b8 bc3b 53b3 013d 621e d5bc
000001e0: c7b6 11bd 51b6 273d dab2 d03b 04f3 95bd
000001f0: 69e9 eebc 613c 1dbd 67eb 0d3d 7b64 fa3c
00000200: 11e5 44bd 5a61 85bd 8c3c 61bd d1cc 2d3d
00000210: b7be 953d d348 5abc ad5b 89bd 49ab 273d
00000220: 326e 4b3d 2e33 2f3d bff2 403b 85ee 423d
00000230: 1d22 263c 13af 533c d14f 90bd 7f97 3d3d
00000240: 7d41 9bbd 7d53 d63c 0369 883d 16f1 24bd
00000250: baf4 b8bc a7fe 5abd 6121 713d f72b 2bbd
00000260: aaa6 0f3c 2cfe be3c 7ba1 94bd 7eb1 9a39
00000270: ad44 493d 30b9 84bd cdc3 4bbd 8c1d bc3c
00000280: dca7 3a3d 5050 be3c 3062 3fbc aa3c 1d3d
00000290: e0f7 3ebb c6a3 5e3d 78ab 93bd db4d 873d
000002a0: 4014 8e3a 62d6 553d 3cf1 b23b aeb1 68bb
000002b0: 05a5 8ebd 9504 013c af1f 41bd c922 5b3d
000002c0: a2af f93b bc55 9abd 8e84 6c3d 66b0 0cbb
000002d0: 492f 98bd 923a 4fbd 1778 723b 300e d23c
000002e0: b24b 1dbd 8811 d8bc ed48 773d f05a c43c
000002f0: e7e0 4b3d eabe 9dbc 47ab a7bc ebed 283d
00000300: 2577 be3c 6842 a8ba 57a8 2abd 8af3 373d
00000310: 4254 debc 5e47 8fbd b7fb 203c 3d28 3dbd
00000320: d344 52bd b076 a53c 383a 8e3d 52b5 3b3d
00000330: 350d 583c dd51 e039 9ed1 943c 3edf 7e3d
00000340: 598f 6b3d b630 41bd b735 bebc efd6 923d
00000350: b6c1 51bd 85d4 febc c199 0fbc 21b6 823d
00000360: b6a0 d6bb 4046 47bd 010a 833d f70a 17bd
00000370: 6516 813b 15cd 81bc 7b52 f73c 25f8 e1bc
00000380: ec3a 913d a448 593d 40cf 793d 1ffa 37bc
00000390: 5d4e 7c3d 38f5 573b 33ed 713d 4d1b 5f3d
000003a0: e98e 523d b522 95bd 037f 68bd 9a9f 46bd
000003b0: 2de0 fd3c a616 7cbd c3d4 15bd e9cd 04bd
000003c0: d8db e8bc c1ac 5cbb 6783 8dbb b8f1 cabc
000003d0: f2c5 0cbc 7fb6 663d c888 6a3d 4e7b 803c
000003e0: bfcd 3a3b f835 25bd 5caf aa3b b65a 1c3d
000003f0: bcf5 183d 6f17 923d 4423 c63c 8ea0 633d
-0.06881694 -0.04866065 -0.06851793 -0.00011102947 -0.04620094 -0.0067696455 -0.02525468 -0.07135512
-0.07721498 -0.049786787 -0.007237071 0.058411345 0.06788616 -0.007938215 0.041048236 -0.01565296
-0.04312277 0.065642476 0.053956382 0.0032298113 0.019311115 -0.07263964 -0.0012658313 0.0036344603
0.004746033 0.05721194 -0.018868674 -0.06998463 0.048684753 -0.0060428996 -0.07526612 -0.06465229
-0.0019593562 -0.05042411 0.014028506 0.0042210086 0.0052323053 -0.061764907 0.0778195 -0.03297778
0.0149702225 0.063207194 -0.05999164 -0.06998476 0.01349941 -0.040043738 -0.012981626 0.026858795
0.06517731 -0.027014539 -0.061694495 -0.044304445 -0.041742913 -0.018607838 -0.05837888 -0.017431544
-0.015489813 -0.062064186 0.012698482 -0.057613723 -0.03795035 -0.023025358 -0.009477685 -0.037127785
0.044051357 -0.0019772744 0.040437125 0.038808227 -0.07818231 -0.0137039935 -0.007876059 -0.06832604
0.053183377 0.04492892 0.023677003 0.07209124 -0.06403025 0.0763119 -0.03745582 -0.053896386
-0.06796576 -0.07590753 0.07177629 0.024184542 0.009112871 0.022643492 -0.0727656 0.045241777
0.039229862 -0.068197064 -0.038040597 0.035051286 -0.004019619 -0.041419566 -0.007413244 0.049410366
-0.002962449 -0.01974712 0.0046195867 0.015989853 -0.070991136 0.06828681 0.020749291 0.019769471
-0.05195998 -0.050121244 0.028878635 -0.028883124 -0.046758447 -0.04646173 0.06374818 0.04611262
-0.062947825 0.035305586 -0.027776401 -0.051880557 0.068797074 0.0057592406 0.031665158 -0.026015464
-0.0355747 0.040945355 0.006368977 -0.07321742 -0.029164033 -0.03838766 0.034648325 0.030565491
-0.048070017 -0.06512709 -0.054989383 0.042431656 0.073117666 -0.013323027 -0.06706939 0.040934835
0.049665637 0.042773418 0.0029441563 0.04759075 0.010139969 0.012920159 -0.07046474 0.046287056
-0.0758085 0.026162857 0.066606544 -0.04026898 -0.022577632 -0.05346551 0.058869723 -0.041789975
0.008767763 0.023314558 -0.072573625 0.0002950541 0.04913776 -0.06480634 -0.049747277 0.022963308
0.04557024 0.023231655 -0.011681125 0.038387932 -0.0029139444 0.054355405 -0.072104394 0.066066466
0.0010839775 0.052206405 0.0054608863 -0.0035506296 -0.06965069 0.007874628 -0.047149356 0.05349997
0.007619814 -0.07535884 0.0577436 -0.0021467446 -0.07430894 -0.050592966 0.0036997849 0.02564153
-0.038402267 -0.026375547 0.06037228 0.023969144 0.04977503 -0.019256074 -0.020467414 0.04124252
0.023250172 -0.0012837173 -0.041664448 0.04490999 -0.027139787 -0.06996034 0.0098256385 -0.046180952
-0.051335167 0.020198196 0.06944698 0.045827217 0.013186743 0.00042785602 0.01816636 0.06222462
0.057509754 -0.047165595 -0.023218973 0.071699016 -0.051210128 -0.031107197 -0.008764685 0.063823946
-0.00654992 -0.04865098 0.063983925 -0.03687569 0.003939437 -0.015844861 0.030190697 -0.027584145
0.070913166 0.05304779 0.060988665 -0.011229067 0.06159817 0.0032952558 0.0590641 0.054469395
0.05140582 -0.072820105 -0.056761753 -0.04849205 0.030990684 -0.061545037 -0.03657986 -0.032422934
-0.028425142 -0.0033672305 -0.004318643 -0.024773464 -0.008592116 0.056326386 0.05725935 0.015683796
0.0028503982 -0.04033467 0.0052088927 0.038172446 0.037343726 0.07133376 0.024186738 0.05557304

convs.1.fc_full.bias f4 [128]
00000000: 7dac 933d 3ce3 7bbc 6ad8 513d 244b 8abd
00000010: 8a53 acbc e3e7 4bbd 28fa 8dbd cb5e 98bb
00000020: 1464 6fbd 99c3 8dbd 5815 ec3c c8d8 06bc
00000030: c03a b23c d824 ca3c d2c3 1f3d 1088 883c
00000040: e3e5 39bd 20ac 2c3c 4779 80bc 7711 5f3c
00000050: cf4e 30bd d99f 15bd 4628 c0bc 69bb f4bb
00000060: 99e8 02bd b487 1cbd 0a6b a5bc 2ece 6f3d
00000070: a0a2 213d 48fe 283d 861b 6bbd 1acb c2bc
00000080: 12fc 1f3b 6e21 723d ec75 e93c 6b94 843d
00000090: 32c2 41bd e001 11bd 18ec 533c 413e 26bb
000000a0: 6c2f 8b3c 683c 8bbc 7630 d1bc 65a8 ec3b
000000b0: ec98 ab3c 6219 703d f839 ee3c 32db 4abd
000000c0: a822 8cbd ce1c 3b3b 7eeb 5bbd 6cca ff3c
000000d0: cd22 35bc 9017 af3b e76f 99bd e4d6 ff3c
000000e0: 8167 873d 36b9 50bd 621c 633d 7a63 603d
000000f0: 140d 073d b02a 813c 1645 4f3d 18c7 97bd
00000100: a563 873d de9e 123b f6d4 a5bc d877 073d
00000110: 2630 233d f9ad 83bd 628a d8bc 7210 5dbd
00000120: 8d3f 8d3d 399b 983d 14aa cc3c 0d8b 4dbd
00000130: ce25 4d3d 2927 87bd f607 113d 1e43 7ebd
00000140: 064a 533d 24e2 9abd afea 0ab9 3a54 5b3d
00000150: d6cb 92b9 cb81 ac3a a6d6 273d 41dd 7b3d
00000160: fcee c8bc f170 6ebc 9f41 943d 0a63 3c3d
00000170: d01f 8fbd 3139 363c 9255 3c3d ff40 8e3d
00000180: 709d c63c 4025 113d e650 74bd e62f 4f3d
00000190: 20d1 173c 7207 7a3d 369b 7a3d 4d12 4abd
000001a0: 7d43 8b3d 59c4 69bd a9bf bb39 a7d3 873d
000001b0: fed2 6c3d 5d06 9abd 7077 513c fe1f 353d
000001c0: a9a4 db3c 9c84 013d 3c52 c0bc 8ae9 abbc
000001d0: 122e 75bd 8390 3cbd 60eb 3a3d 1272 32bd
000001e0: 9cb1 e4bc cdd0 8d3d 14d3 473c e239 42bb
000001f0: c9a3 8bbd 8940 893d 2ca0 d0bc b4bf 38bd
0.07210634 -0.015374001 0.05123178 -0.06752613 -0.021035928 -0.04978169 -0.06932479 -0.004649972
-0.05844505 -0.06922073 0.028818771 -0.008230396 0.02175653 0.024675772 0.03900511 0.016666442
-0.045385253 0.010539085 -0.01568283 0.013615004 -0.043043908 -0.036529396 -0.023456704 -0.00746863
-0.031960104 -0.038215354 -0.020192642 0.058546238 0.039461732 0.041258126 -0.057399295 -0.023778487
0.002441172 0.059113912 0.028498612 0.06473621 -0.04730434 -0.03540218 0.012934707 -0.0025366696
0.016990386 -0.016996577 -0.025535803 0.0072222226 0.020946942 0.058617957 0.029080376 -0.049525447
-0.06842548 0.0028551104 -0.05369138 0.031224452 -0.01105566 0.005343385 -0.07492047 0.031230398
0.06611539 -0.05095788 0.05544699 0.05478237 0.032971457 0.015767425 0.050602995 -0.07411021
0.066108026 0.0022372524 -0.02024315 0.033073276 0.03984084 -0.06429667 -0.026433174 -0.05397076
0.06896887 0.07451481 0.024983443 -0.050181437 0.05008488 -0.06599266 0.035407983 -0.062075727
0.051584266 -0.07562664 -0.00013248132 0.05354712 -0.0002799916 0.001316124 0.04097619 0.0614903
-0.02452802 -0.0145532945 0.07239079 0.04599289 -0.0698849 0.011122034 0.045980044 0.06945991
0.024244994 0.035435915 -0.059647463 0.05058279 0.009266168 0.061042257 0.061183177 -0.04933386
0.06799982 -0.057072017 0.00035810217 0.06632166 0.057818405 -0.07520745 0.012784824 0.044219963
0.026811915 0.031620607 -0.023476712 -0.020985384 -0.05985839 -0.046036255 0.045634627 -0.043565817
-0.027916722 0.06924591 0.012196321 -0.0029636552 -0.06818349 0.06701762 -0.025467 -0.045104697

convs.1.bn1.weight f4 [128]
00000000: 97e4 7f3f a20a 803f 430a 803f 5428 803f
00000010: 2d18 803f 35b8 7f3f ad01 803f f421 803f
00000020: 46d6 7f3f 5ff7 7f3f 99f6 7f3f 35e8 7f3f
00000030: 180e 803f 0203 803f be04 803f 18ee 7f3f
00000040: 440a 803f a6bf 7f3f 6af3 7f3f fafc 7f3f
00000050: 4515 803f 18e8 7f3f 6407 803f 8718 803f
00000060: cc0a 803f 50f4 7f3f f1f5 7f3f d305 803f
00000070: bae8 7f3f 9203 803f 53d4 7f3f 8ff8 7f3f
00000080: e9cb 7f3f 9fd0 7f3f 65f7 7f3f 6cfa 7f3f
00000090: 5b09 803f 45f2 7f3f 5700 803f 8def 7f3f
000000a0: 1e4e 7f3f adf4 7f3f 14f2 7f3f 2c0b 803f
000000b0: 0c0b 803f 3af2 7f3f ce0f 803f f10e 803f
000000c0: 1e42 803f 4f09 803f 4fb8 7f3f 9924 803f
000000d0: b1f7 7f3f 1909 803f ced7 7f3f 3122 803f
000000e0: 93fc 7f3f 8c97 7f3f 4f10 803f c328 803f
000000f0: 33fa 7f3f a8ff 7f3f 8cc5 7f3f 3d04 803f
00000100: b6f5 7f3f 31f5 7f3f 2fed 7f3f 18c9 7f3f
00000110: 3c00 803f f916 803f f600 803f 16c9 7f3f
00000120: 5917 803f 1510 803f 5d0e 803f bd0b 803f
00000130: e5bb 7f3f 5104 803f eeef 7f3f 650e 803f
00000140: 6be0 7f3f 8318 803f bc31 803f 8e0c 803f
00000150: b1fc 7f3f fb04 803f dcf5 7f3f dee2 7f3f
00000160: dbf7 7f3f 9d09 803f 6505 803f 89e2 7f3f
00000170: 6c06 803f e318 803f 281a 803f 9c02 803f
00000180: 5d12 803f 8514 803f 1508 803f 7323 803f
00000190: a9de 7f3f 4009 803f 82ea 7f3f 6cf9 7f3f
000001a0: 7e4b 803f c20c 803f 0204 803f a9fe 7f3f
000001b0: 20f5 7f3f df0b 803f f9ce 7f3f 20ee 7f3f
000001c0: 0389 7f3f 1fe3 7f3f ab13 803f 39b7 7f3f
000001d0: ef03 803f 68f2 7f3f 6a0f 803f dcd9 7f3f
000001e0: fe01 803f e955 803f c7ed 7f3f d7ef 7f3f
000001f0: 2907 803f 7dea 7f3f f615 803f a2fb 7f3f
0.99958175 1.0003245 1.0003132 1.0012307 1.0007378 0.9989045 1.0000511 1.0010362
0.9993633 0.99986833 0.99985653 0.99963695 1.0004301 1.0000918 1.0001447 0.9997268
1.0003133 0.9990181 0.99980795 0.99995387 1.0006491 0.9996352 1.0002255 1.0007485
1.0003295 0.99982166 0.9998465 1.0001777 0.9996449 1.000109 0.99933356 0.99988645
0.9992052 0.99927706 0.9998687 0.9999149 1.0002855 0.9997905 1.0000104 0.999749
0.9972857 0.9998272 0.99978757 1.0003409 1.0003371 0.99978983 1.0004823 1.000456
1.0020177 1.0002841 0.9989061 1.0011169 0.9998732 1.0002776 0.99938667 1.0010434
0.9999477 0.9984062 1.0004977 1.001244 0.9999115 0.99999475 0.9991081 1.0001293
0.999843 0.9998351 0.9997129 0.9991622 1.0000072 1.0007011 1.0000293 0.9991621
1.0007125 1.0004908 1.0004383 1.0003582 0.9989608 1.0001317 0.9997548 1.0004393
0.9995181 1.000748 1.0015178 1.0003831 0.9999495 1.000152 0.99984527 0.99955547
0.9998757 1.0002934 1.0001646 0.9995504 1.000196 1.0007595 1.0007982 1.0000796
1.0005604 1.0006262 1.0002466 1.0010818 0.9994913 1.0002823 0.99967206 0.9998996
1.0023038 1.0003893 1.0001223 0.99997956 0.99983406 1.0003623 0.9992519 0.99972725
0.9981844 0.99955934 1.0006002 0.9988895 1.00012 0.9997926 1.0004704 0.999418
1.0000608 1.0026218 0.99972194 0.9997534 1.0002185 0.99967176 1.0006702 0.99993336
